Training results of three types of reinforcement learning/user_differentiation_model/best_agent.pth (torch, 107068 bytes, 10 tensors)

shared.0.weight f4 [128, 4]
0	0xbeda4e0b	-0.42637667
1	0x3e5ce959	0.2157339
2	0xbeb5d709	-0.3551562
3	0xbe3cd2c4	-0.18439776
4	0xbe5d8e4c	-0.21636313
5	0xbde36c70	-0.11104667
6	0x3e7896d5	0.24276288
7	0x3cba7e59	0.022765325
8	0x3dc4991e	0.09599517
9	0x3ebf5bb8	0.37374663
10	0x3f00dc93	0.5033657
11	0x3eea9b3f	0.45821568
12	0x3e2d7cb3	0.169421
13	0xbed5e65a	-0.41777307
14	0xbdb86436	-0.09003489
15	0x3e38dc2a	0.18052736
16	0xbea09f81	-0.31371692
17	0xbded9bbd	-0.1160197
18	0xbced6c39	-0.028982269
19	0xbe5b75cd	-0.21431656
20	0x3d864202	0.06555559
21	0xbec120e2	-0.377204
22	0xbe3c93b8	-0.18415725
23	0xbebb86ca	-0.36626273
24	0xbe9afb9a	-0.30270082
25	0xbe982a04	-0.29719555
26	0x3eca1adf	0.39473626
27	0xbe9051b9	-0.2818735
28	0x3ef0a200	0.46998596
29	0xbe9a05e8	-0.3008263
30	0xbea7b67a	-0.32756406
31	0xbeb030fc	-0.34412372
32	0x3de23815	0.11045853
33	0xbc7206c2	-0.014772119
34	0xbd98662b	-0.07441362
35	0x3e31956d	0.17342158
36	0xbe3136f4	-0.17306119
37	0x3e33c1a8	0.17554343
38	0x3e526544	0.20546442
39	0xbde60428	-0.112312615
40	0x3ef56385	0.4792749
41	0xbcb0a9fc	-0.02156543
42	0xbeaccfe1	-0.3375235
43	0x3e353d81	0.17699243
44	0xbb18d500	-0.0023320317
45	0xbec15bdc	-0.37765396
46	0xbe33e108	-0.17566311
47	0x3eda8248	0.42677522
48	0xbed0a8cc	-0.40753782
49	0xbd169b60	-0.03676927
50	0x3e841563	0.25797567
51	0x3e5793e0	0.21052504
52	0x3ec42eb6	0.38316888
53	0xbe83aa28	-0.25715756
54	0x3dc47e79	0.09594435
55	0x3e9dad88	0.30796456
56	0xbd9f64b0	-0.077828765
57	0xbe09e038	-0.13464439
58	0x3ee69318	0.450341
59	0xbede8770	-0.43462706
60	0xbea82004	-0.32836926
61	0x3db019f8	0.08598703
62	0xbea2df78	-0.31811118
63	0x3efab240	0.4896412
64	0xbdc24e71	-0.09487618
65	0x3eec7b36	0.46187752
66	0x3e92ef56	0.28698224
67	0xbea0e99f	-0.3142824
68	0xbd3e49f0	-0.04645723
69	0x3c2e2540	0.010628998
70	0xbc8ee0a0	-0.017441094
71	0xbdbce3b0	-0.092231154
72	0x3ec83a18	0.39106822
73	0xbe4de400	-0.20106506
74	0x3ece0a42	0.402422
75	0xbe548d62	-0.20757058
76	0xbd3881e4	-0.04504575
77	0xbea469b2	-0.3211189
78	0xbec498b5	-0.38397756
79	0x3de64216	0.11243074
80	0xbeb01116	-0.34388036
81	0x3d0c1165	0.034196276
82	0x3ee95e2a	0.45579654
83	0x3ecc652d	0.3992094
84	0x3d8f2618	0.06989688
85	0x3df6ab63	0.12044408
86	0xbd9eea9d	-0.07759593
87	0xbe803771	-0.25042298
88	0xbe1b788c	-0.15182704
89	0x3e12ffb4	0.14355356
90	0x3ec545ba	0.3852976
91	0x3e0378d8	0.12839067
92	0x3e34bc5d	0.1764998
93	0x3ece51b0	0.40296698
94	0xbedbaaff	-0.42903897
95	0xbe4db328	-0.20087874
96	0xbe07f25b	-0.13276045
97	0x3edb6457	0.4284999
98	0xbe913dda	-0.28367501
99	0xbeb75718	-0.35808635
100	0x3e0f1493	0.13972692
101	0x3f046dfc	0.5173032
102	0xbe8600e9	-0.2617257
103	0x3e6095cc	0.21932143
104	0x3e31262d	0.17299719
105	0xbe521a6d	-0.20517893
106	0xbe8b1865	-0.2716705
107	0xbea836b3	-0.32854232
108	0xbea7cf37	-0.3277528
109	0x3ed6f54e	0.41984028
110	0xbedb9f64	-0.42895043
111	0xbcea5402	-0.028604511
112	0xbe8f1680	-0.27946854
113	0xbe017998	-0.1264404
114	0xbeb9959c	-0.36246955
115	0x3ea8d20c	0.32972753
116	0x3ebc8eea	0.36827785
117	0x3ebe92af	0.37221286
118	0x3dd13cdf	0.10216688
119	0x3e0d16cc	0.13778228
120	0xbd9977e7	-0.07493573
121	0x3df37c6b	0.11888965
122	0x3eb910c3	0.361456
123	0xbe237b6a	-0.15965047
124	0xbe09779d	-0.13424535
125	0x3e90cbef	0.2828059
126	0x3e379bdc	0.1793055
127	0xbd79123b	-0.0608084
128	0xbe641722	-0.2227445
129	0xbef5f9f6	-0.48042268
130	0x3e0a1387	0.13484012
131	0xbd887b4b	-0.06664141
132	0xbe49afa8	-0.19695914
133	0xbe412a58	-0.18863809
134	0xbef47726	-0.47747153
135	0x3eaf3046	0.34216517
136	0x3ee3ed11	0.44516805
137	0x3ef1b62c	0.472093
138	0x3e7cbcd8	0.24681413
139	0xbc67d1c8	-0.014149137
140	0xbed3dd71	-0.41379884
141	0xbe24360c	-0.16036242
142	0xbeddaa4b	-0.43293986
143	0xbdff1c9d	-0.124566294
144	0x3e391380	0.18073845
145	0xbe3ff8ac	-0.18747205
146	0x3c92abd7	0.017904205
147	0xbecc803c	-0.39941585
148	0xbd143a33	-0.036188316
149	0xbe4485a0	-0.19191599
150	0x3ec7ab6f	0.3899798
151	0x3ee69af1	0.45040086
152	0xbe96e27a	-0.29469663
153	0x3de2d780	0.110762596
154	0xbbf3cf00	-0.007440448
155	0x3e5547f8	0.20828235
156	0xbeab4ea2	-0.3345843
157	0xbec59718	-0.38591838
158	0x3da33878	0.07969755
159	0xbca3d240	-0.019997716
160	0x3eef9052	0.46789795
161	0xbd1efa90	-0.038813174
162	0xbec176ac	-0.37785852
163	0xbe092e48	-0.13396561
164	0x3e735e05	0.23766334
165	0x3eca7cfa	0.39548475
166	0x3e7cbcc9	0.24681391
167	0xbcd5d8f4	-0.026104428
168	0xbec0ccf4	-0.37656367
169	0x3d117c76	0.035519086
170	0xbe8ccb36	-0.27498788
171	0x3ebcadc5	0.36851326
172	0x3ed579a0	0.41694355
173	0xbcc0639f	-0.023485003
174	0xbdc66863	-0.09687879
175	0x3d8fd391	0.07022775
176	0xbd7f47c0	-0.062324286
177	0xbe11b660	-0.14229727
178	0xbd6a2780	-0.057166576
179	0x3e82d3c8	0.255522
180	0x3ee4d462	0.44693285
181	0xbe34a644	-0.1764155
182	0xbcb6edb2	-0.022330139
183	0xbdc87705	-0.09788326
184	0x3ed88ca5	0.42294803
185	0xbd681758	-0.056662887
186	0x3d8f562a	0.06998856
187	0xbe9b0c75	-0.3028294
188	0xbeb55206	-0.3541414
189	0xbd0a7100	-0.03379917
190	0xbdf9dab8	-0.121999204
191	0xbe4d8318	-0.2006954
192	0x3d4826d8	0.04886517
193	0x3ee7c58d	0.45267907
194	0xbb8bb060	-0.004262969
195	0x3e5953a1	0.21223308
196	0x3e6a0d8a	0.22856727
197	0x3e81b121	0.2533045
198	0x3deceb0d	0.1156827
199	0xbe81f32c	-0.25380838
200	0xbca03840	-0.019558072
201	0x3da66649	0.08124978
202	0xbe29e2a9	-0.1659037
203	0x3cfd4b19	0.030919598
204	0x3eb60ac6	0.35555094
205	0x3e16261e	0.14662978
206	0x3c557861	0.013029189
207	0xbe938a3e	-0.28816408
208	0xbeef3edc	-0.46727645
209	0xbd9eab90	-0.07747567
210	0xbe2093f4	-0.1568144
211	0x3d5ef7c0	0.05443549
212	0xbe89aaca	-0.26888114
213	0xbea96580	-0.3308525
214	0x3dd01e90	0.10162079
215	0xbeaf48a8	-0.3423512
216	0x3ef9ee02	0.48814398
217	0x3e27e730	0.16396785
218	0x3ef6ed3b	0.48227867
219	0xbe89cd45	-0.2691442
220	0x3e77d214	0.24201232
221	0x3dc87288	0.0978747
222	0xbe49d05c	-0.19708389
223	0x3e188580	0.14894676
224	0x3efade39	0.48997667
225	0x3eff84b2	0.49905926
226	0x3e9801d2	0.2968889
227	0x3e7f1538	0.24910438
228	0x3d991dd4	0.074763924
229	0x3e534ddf	0.20635174
230	0x3eab6945	0.33478752
231	0x3e0a3070	0.1349504
232	0xbe901596	-0.2814147
233	0x3e749278	0.23883998
234	0xbe554f10	-0.20830941
235	0xbecc3020	-0.39880466
236	0xbedc9458	-0.43081927
237	0xbe814754	-0.25249732
238	0xbec1368b	-0.37736925
239	0xbe39ed29	-0.18156876
240	0x3ee717a8	0.45135236
241	0xbec073c2	-0.37588316
242	0x3c3f6366	0.011681413
243	0x3ec0f709	0.37688473
244	0x3df75421	0.12076593
245	0xbef8c11c	-0.4858483
246	0x3dd18eeb	0.102323376
247	0xbeaf671a	-0.34258348
248	0xbeb95e74	-0.36204875
249	0xbee43d96	-0.44578236
250	0x3e7e5072	0.24835375
251	0xbd07783c	-0.03307365
252	0xbec22969	-0.37922218
253	0x3e7baa6f	0.24576734
254	0xbe4d6169	-0.2005669
255	0x3eba074f	0.363337

shared.0.bias f4 [128]
0	0x3e857d66	0.26072234
1	0x3e5e6a53	0.21720247
2	0x3f017152	0.5056354
3	0xbce3fc7b	-0.027830353
4	0x3ee72555	0.4514567
5	0x3ede57e7	0.4342644
6	0x3ed0786c	0.40716875
7	0xbecbaed0	-0.3978181
8	0x3dc82607	0.09772878
9	0xbebc205c	-0.36743438
10	0xbd292c26	-0.04130187
11	0xbef8f332	-0.48623043
12	0xbdb6ea89	-0.08931453
13	0x3ec0f4e9	0.37686852
14	0xbe92d782	-0.28680044
15	0xbe050f1c	-0.12994045
16	0xbe3b9452	-0.18318298
17	0xbe4c588c	-0.19955653
18	0x3e68faab	0.22751872
19	0x3e69da54	0.22837192
20	0x3ecaca4f	0.39607474
21	0x3e62506a	0.22100988
22	0xbeb98940	-0.36237526
23	0x3dafa092	0.08575548
24	0xbec55d71	-0.38547853
25	0xbede3af9	-0.43404368
26	0x3ed7a61c	0.4211892
27	0xbcf3433c	-0.029695146
28	0xbedf87f4	-0.43658412
29	0xbea34d8b	-0.31895098
30	0x3e855b64	0.26046288
31	0xbe909a4c	-0.2824272
32	0x3e7e385c	0.24826187
33	0xbe3fbeec	-0.18725175
34	0xbed417c2	-0.41424376
35	0x3e975960	0.29560375
36	0x3de4e12a	0.11175759
37	0xbe18ec74	-0.1493395
38	0xbd9fc4f0	-0.07801235
39	0xbd7b4820	-0.06134808
40	0xbedbb71e	-0.42913145
41	0xbe6e97ac	-0.23300046
42	0x3e055750	0.13021588
43	0x3ea907f9	0.33013895
44	0xbeee9c3c	-0.46603572
45	0x3ebf0aa1	0.37312797
46	0x3d47984b	0.048729222
47	0xbda7ab88	-0.08187014
48	0x3eac2fa0	0.33630085
49	0x3e2d6f71	0.16937043
50	0x3eed8ce5	0.46396556
51	0xbea47fc2	-0.3212872
52	0xbcb16bc0	-0.021657825
53	0xbeb5db1e	-0.35518736
54	0xbe9b1fa9	-0.30297592
55	0xbee72af0	-0.45149946
56	0x3d28b1de	0.041185252
57	0xbeea14ec	-0.45719087
58	0xbde0c400	-0.10974884
59	0x3e644763	0.22292857
60	0xbedf43cd	-0.43606415
61	0x3e3bf4d1	0.18355109
62	0x3ebfad84	0.3743707
63	0x3da9c68c	0.08289823
64	0xbd162cdc	-0.036663875
65	0x3ef97a15	0.48725954
66	0xbe05e481	-0.13075449
67	0xbec1a656	-0.37822217
68	0x3c093414	0.008374233
69	0x3e262e88	0.16228688
70	0xbec7fb8f	-0.3905911
71	0x3e1c641c	0.15272564
72	0x3e047b7f	0.12937735
73	0x3dca9c1a	0.09893055
74	0xbe795c9c	-0.24351734
75	0x3ed93858	0.424258
76	0xbef50d16	-0.47861546
77	0x3dce4bbf	0.10073041
78	0x3c8df043	0.01732648
79	0x3d844a81	0.06459523
80	0xbefd0886	-0.49420565
81	0x3d185220	0.037187696
82	0xbdfcc1b8	-0.123416364
83	0x3e0cb082	0.13739207
84	0xbd9bef6c	-0.076140255
85	0x3f034fb8	0.51293516
86	0xbeec1ae6	-0.46114272
87	0xbec2707a	-0.37976438
88	0xbed31fe8	-0.4123528
89	0x3d7c09d1	0.0615328
90	0x3e7dc73a	0.2478303
91	0x3ee503b2	0.44729382
92	0xbd6e4e20	-0.058179975
93	0xbe1218a4	-0.14267212
94	0x3e583190	0.21112657
95	0x3d568701	0.052374844
96	0xbe954790	-0.2915616
97	0xbef99406	-0.48745745
98	0x3e0ae270	0.13562942
99	0x3ef60549	0.48050907
100	0x3e3b84f9	0.18312444
101	0xbdb34f00	-0.087553024
102	0x3dc73aee	0.09728037
103	0x3ef8525a	0.4850033
104	0xbdd53190	-0.10409844
105	0x3ce5e0fa	0.028061379
106	0xbe3a9af8	-0.18223178
107	0xbe09a124	-0.13440377
108	0x3ede8ef4	0.4346844
109	0xbee4cd92	-0.44688088
110	0xbe9c99be	-0.30586046
111	0xbcb332e0	-0.021874845
112	0xbe9bfa44	-0.30464375
113	0xbefa2f00	-0.48863983
114	0xbeb54036	-0.35400552
115	0xbebd23b6	-0.36941308
116	0xbe9a0ab8	-0.30086303
117	0xbd3e7220	-0.046495557
118	0x3e125b23	0.14292578
119	0x3ec98c33	0.39364776
120	0xbea73a0a	-0.32661468
121	0x3e849495	0.2589461
122	0x3ebb532d	0.36586896
123	0xbe3cc928	-0.1843611
124	0x3e06228c	0.13099116
125	0xbef4645c	-0.47732818
126	0x3e47924e	0.19489405
127	0x3ede7bf4	0.43453944

shared.2.weight f4 [64, 128]
0	0xbbafe7a4	-0.00536819
1	0x3c59884b	0.013277124
2	0xbda83eab	-0.08215078
3	0xbd524c58	-0.05134234
4	0x3cd83faa	0.026397545
5	0x3d896eb1	0.06710566
6	0x3d3dbfcd	0.046325494
7	0x3d12ce29	0.03584114
8	0xbd507880	-0.050896168
9	0xbd778031	-0.060424987
10	0xbbbd9c0d	-0.005786425
11	0xbaa74225	-0.0012760801
12	0xbd9d5c1c	-0.07683584
13	0x3d92a89a	0.071610644
14	0xbd1cafcb	-0.038253587
15	0xbd8ed416	-0.06974046
16	0x3d87974b	0.06620654
17	0x3c216f35	0.009853174
18	0xbd0a8eb7	-0.03382751
19	0xbcb3b172	-0.021935198
20	0x3c422050	0.011848524
21	0xbda5b6ff	-0.08091544
22	0x3d0a3a13	0.03374679
23	0xbc9804de	-0.018557008
24	0x3d9c7fd0	0.07641566
25	0xbda6e2ec	-0.08148751
26	0xbd30eacb	-0.043192666
27	0x3d6b5582	0.057454593
28	0xbb8ea0f6	-0.004352684
29	0x3b3304eb	0.0027316164
30	0xbdaa9f05	-0.08331112
31	0xbc6daeb7	-0.014506987
32	0xbd987aa1	-0.074452646
33	0xbcf9a29c	-0.030473046
34	0xbc07dc6b	-0.008292298
35	0xbbd2df2c	-0.0064352956
36	0x3c98f948	0.018673554
37	0xbca6871b	-0.020328095
38	0xbc82cdf2	-0.015967343
39	0xbdab8193	-0.08374324
40	0x3d0d4cb3	0.034496974
41	0xbd1b4e87	-0.037916686
42	0xbd6e1793	-0.05812795
43	0x3d931bb7	0.071830206
44	0x3d5a95bf	0.053365465
45	0x3d8888b6	0.066667005
46	0xbad85564	-0.001650494
47	0x3ce7141c	0.028207831
48	0xbc053321	-0.008129866
49	0x3cf3c422	0.02975661
50	0xbceb44c2	-0.02871931
51	0x3db0b504	0.08628276
52	0xbd1b0c9c	-0.037853822
53	0x3c865f6b	0.01640292
54	0x3d2b3024	0.041793957
55	0x3d60d81d	0.0548936
56	0xbd1a9b98	-0.037746042
57	0x3d55f708	0.05223754
58	0x3d8e854e	0.069590196
59	0x3d281d2a	0.041043438
60	0xbda48b4e	-0.08034383
61	0x3ce49d1b	0.027906945
62	0x3da9eba1	0.08296896
63	0x3d4e7280	0.050402164
64	0x3da58069	0.08081133
65	0x3d165961	0.036706332
66	0xbd0e5914	-0.03475292
67	0x3c0589d4	0.008150537
68	0x3bd147fb	0.0063867546
69	0xbdb6a576	-0.08918278
70	0xbd7c40dd	-0.061585296
71	0xbd9eb99e	-0.077502474
72	0xbcef78fb	-0.029232493
73	0x3d6b7b99	0.05749092
74	0xbda03a78	-0.07823652
75	0x3d1eb031	0.038742248
76	0xbd233fca	-0.039855756
77	0xbd8946b6	-0.0670294
78	0x3db08585	0.08619217
79	0x3d0f64a2	0.03500808
80	0xbc86567e	-0.016398665
81	0xb9ccfbcf	-0.00039097524
82	0xbd5cb52e	-0.053883724
83	0xbd7563de	-0.059909694
84	0xbd306367	-0.043063547
85	0x3cdf0929	0.027226048
86	0x3d3dee93	0.0463701
87	0x3c18a9e1	0.009317846
88	0x3d065242	0.03279329
89	0xbc2f5f2d	-0.010703844
90	0x3d8247cb	0.0636135
91	0xbd1820f2	-0.037140794
92	0xbd37580b	-0.0447617
93	0xbc554a7a	-0.013018245
94	0x3d332760	0.043738723
95	0xbcb3a0b9	-0.021927224
96	0xbd88140f	-0.06644451
97	0xbd694bf0	-0.056957185
98	0xbd5c8d7c	-0.053845868
99	0x3c8f27ee	0.017475095
100	0x3d7f77e5	0.0623702
101	0xbd4ed5fa	-0.050497033
102	0x3d79d28b	0.060991805
103	0x3d7c8d4d	0.061658192
104	0x3ac7a936	0.0015232924
105	0x3accf998	0.001563835
106	0x3db2e251	0.08734573
107	0x3d1f8d54	0.03895314
108	0x3d6f5d4f	0.058438595
109	0x3c9e6980	0.019337416
110	0x3b3df2e9	0.0028983897
111	0x3cd576c8	0.026057616
112	0x3d629a17	0.055322733
113	0x3d64786a	0.0557789
114	0xbd1446ee	-0.036200456
115	0xbcb81505	-0.02247096
116	0x3d9a3797	0.07530134
117	0xbd3e05d7	-0.046392288
118	0xbdb7e5d6	-0.089793846
119	0xbd9024f3	-0.070382975
120	0xbc335e3b	-0.010947759
121	0x3d97a591	0.07404626
122	0x3d5ef154	0.054429367
123	0xbdb59353	-0.088659905
124	0xbd6e26f7	-0.05814263
125	0x3d77db19	0.060511682
126	0xbc659987	-0.014013655
127	0xbd414eed	-0.04719441
128	0xbdb05eda	-0.086118415
129	0xbd895c67	-0.067070775
130	0x38d11a89	9.970839e-05
131	0x3c9253c1	0.017862203
132	0xbd801cb0	-0.06255472
133	0xbd35cb6a	-0.044383444
134	0xbc3678b6	-0.011137178
135	0xbc69bbba	-0.014265949
136	0x3d8d9e60	0.06914973
137	0xbcfa96fb	-0.030589571
138	0xbd235642	-0.039877184
139	0x3d3087fd	0.04309844
140	0x3b630af0	0.003464397
141	0xbd5fafa0	-0.05461085
142	0xbd281e30	-0.041044414
143	0x3da7358b	0.081645094
144	0xbaec0d28	-0.0018009292
145	0xbd8a0f2d	-0.06741176
146	0xbcce7dc6	-0.025206458
147	0x3d4a9287	0.049456146
148	0xbbf7eb67	-0.007565904
149	0x3d980e55	0.074246086
150	0x3d08b7f3	0.033378553
151	0xbd8b6b54	-0.068075806
152	0xbd778047	-0.06042507
153	0x3d16c856	0.03681215
154	0xbd1464b7	-0.03622886
155	0xbd36a7a3	-0.044593465
156	0xbc952375	-0.018205384
157	0xbd1376eb	-0.03600208
158	0x3d841b94	0.064505726
159	0xbdab69ed	-0.08369813
160	0x3d8a9274	0.06766215
161	0xbd22215b	-0.03958259
162	0x3d754533	0.059880447
163	0x3ca627fc	0.020282738
164	0xbc243bbb	-0.0100240065
165	0xbccf7be5	-0.025327632
166	0xbcc5a6c5	-0.024127373
167	0xbd9b36ba	-0.07578798
168	0xbd22e490	-0.039768755
169	0x3daa52e3	0.08316591
170	0x3d903d5a	0.07042952
171	0xbd83f1ba	-0.0644259
172	0x3cd94eda	0.026526857
173	0xbc6dc77c	-0.014512893
174	0x3d88cca6	0.066796586
175	0xbbc6a7d3	-0.0060624867
176	0xbd9e9745	-0.07743696
177	0x3d9be756	0.07612483
178	0xbd81e812	-0.06343092
179	0xbd71dbeb	-0.05904762
180	0xbaab7af5	-0.0013082909
181	0xbd0577f1	-0.03258509
182	0xbdbaa988	-0.09114367
183	0x3cb0430c	0.021516345
184	0x3d961010	0.073272824
185	0x3d0cbe0e	0.034360938
186	0x3d2727dc	0.040809497
187	0xbc81240c	-0.015764259
188	0x3d6fc84e	0.058540635
189	0xbbd8f6e2	-0.0066212276
190	0x3d2052fc	0.03914164
191	0xbd19b58c	-0.037526652
192	0x3d7e46bf	0.062079187
193	0xbca68367	-0.02032633
194	0x3d1c5558	0.038167328
195	0xbd72637e	-0.059176914
196	0xbbfd81d1	-0.0077364226
197	0xbd2574f7	-0.04039475
198	0x3ce1da01	0.027569773
199	0x3d987626	0.0744441
200	0xbdb1c1c3	-0.08679535
201	0x3d83291f	0.064043276
202	0xbd53c095	-0.051697332
203	0x3d98fcc2	0.07470085
204	0x3cb260d3	0.021774685
205	0x3b3776bc	0.0027994355
206	0x3cdb7775	0.02679036
207	0xbcf6aa09	-0.030110376
208	0xbdb49017	-0.088165455
209	0x3d5b2736	0.05350419
210	0x3da2c970	0.079485774
211	0xbdaeab6e	-0.08528791
212	0xbc390620	-0.011292964
213	0xbc946f42	-0.018119458
214	0xbc64180a	-0.013921747
215	0xbd649b59	-0.055812214
216	0xbd9e740f	-0.0773698
217	0x3d8b90ec	0.06814751
218	0xbd9907b7	-0.074721746
219	0xbd3c6de3	-0.046003234
220	0x3d07dcb6	0.03316947
221	0xbd838f67	-0.06423836
222	0xbc4e2233	-0.012581396
223	0x3d3e0323	0.04638971
224	0x3c47ea5b	0.012201871
225	0x3db162b5	0.08661405
226	0xbda5f5a2	-0.08103491
227	0xbd7c5547	-0.061604764
228	0xbd0ee932	-0.03489036
229	0x3c8543a6	0.016267609
230	0xbd7c8e8a	-0.061659373
231	0xbd94cd18	-0.07265681
232	0xbda1160d	-0.07865534
233	0x3b83bcd2	0.004020312
234	0x3da6fecd	0.08154068
235	0xbd00da1c	-0.031458005
236	0xbca18fef	-0.019721953
237	0x3c0ce17f	0.008598684
238	0xbcdd151a	-0.026987601
239	0xb912047e	-0.00013925318
240	0xbd20f37d	-0.03929471
241	0x3c1fdc8e	0.009757174
242	0x3b4857f8	0.0030570012
243	0x3c18b27f	0.009319901
244	0x3d62c917	0.055367555
245	0x3d895165	0.06704978
246	0xbce17c06	-0.02752496
247	0xbdaaaaa0	-0.083333254
248	0x3d9608b0	0.07325876
249	0x3d5c1532	0.05373115
250	0x3d96935b	0.073523246
251	0x3d9af16d	0.075655796
252	0x3d47ad51	0.04874927
253	0xbd25fc8b	-0.040524047
254	0xbd670e9a	-0.05641041
255	0x3d8a143c	0.06742141

shared.2.bias f4 [64]
0	0x3c3ea214	0.011635322
1	0x3cf297aa	0.029613335
2	0xbb1dc934	-0.0024076225
3	0xbc961e0f	-0.01832488
4	0xbda28f7b	-0.07937523
5	0xbcc820c8	-0.024429694
6	0xbd1b3b12	-0.03789813
7	0x3bbf24d9	0.00583325
8	0x3d278997	0.0409027
9	0xbda8ff08	-0.08251768
10	0x3cb25930	0.021771044
11	0xbd3a6599	-0.045507047
12	0x3d96e130	0.0736717
13	0x3dc00ab4	0.093770415
14	0x3cca7b0c	0.024716876
15	0xbda70559	-0.08155317
16	0xbda1e050	-0.07904112
17	0x3cfcd934	0.03086529
18	0x3da31f73	0.07964983
19	0xbd3c0a4e	-0.045908265
20	0x3d8098c8	0.06279141
21	0x3d1a9076	0.037735425
22	0xbd96e00a	-0.07366951
23	0xbd61f53a	-0.055165507
24	0x3c8ee9ee	0.01744553
25	0x3d0a647e	0.033787243
26	0xbd38b04c	-0.045090005
27	0x3d476919	0.048684213
28	0xbc6aa16a	-0.014320711
29	0x3d12ef69	0.03587285
30	0x3dbbb0f3	0.0916461
31	0xbd416a58	-0.047220558
32	0x3c05209e	0.008125452
33	0x3c9c8e79	0.019110905
34	0xbd3989bc	-0.04529737
35	0x3cde21cc	0.027115725
36	0xbd743baa	-0.059627213
37	0x3d9ce375	0.076605715
38	0x3c1ee34d	0.009697747
39	0x3d5c5a81	0.05379725
40	0xbcf12b59	-0.029439615
41	0x3bc0e204	0.005886318
42	0xbd27929f	-0.040911313
43	0x3d8f7268	0.07004243
44	0x3c528c53	0.012850839
45	0x3d8b3062	0.06796338
46	0xbd9d2c5d	-0.07674477
47	0xbce6f8c7	-0.028194798
48	0x3daeffc8	0.0854488
49	0xbd6d23a3	-0.057895314
50	0xbd925ab5	-0.07146207
51	0xbd933bc4	-0.07189134
52	0x3d1cc8e2	0.038277514
53	0x3c843358	0.016137764
54	0x3c9a7a95	0.01885728
55	0x3dac21f7	0.08404916
56	0x3aae5cd4	0.0013302811
57	0xbd83ac41	-0.06429339
58	0xbd608b27	-0.054820206
59	0xbcd740b8	-0.026275977
60	0xbd593a51	-0.05303413
61	0x3d287f6a	0.041137137
62	0xbcd6d6af	-0.026225416
63	0xbc39664c	-0.011315893

actor_head.weight f4 [1, 64]
0	0xbdda6ac6	-0.10664897
1	0xbc9ccc88	-0.019140497
2	0xbddad06b	-0.10684284
3	0xbd4e184c	-0.05031614
4	0xbd49090c	-0.049080893
5	0x3ce09a7c	0.027417414
6	0x3df3da28	0.119068444
7	0x3de8c0b2	0.11364879
8	0xbb0bc2df	-0.002132587
9	0xbd3f066c	-0.046636984
10	0x3d93d9c5	0.072192706
11	0x3de8138b	0.113318525
12	0xbda2807c	-0.07934663
13	0xbdfe5d01	-0.12420083
14	0x3d4032a5	0.0469233
15	0xbdb8beb7	-0.09020751
16	0xbafff000	-0.0019526482
17	0x3d8bcdc0	0.06826353
18	0x3c0782fb	0.008270974
19	0xbc525d40	-0.012839615
20	0xbc8960b6	-0.016769748
21	0x3d9f9989	0.077929564
22	0xbd8636a5	-0.06553391
23	0x3d8f1738	0.069868505
24	0x3d91911d	0.07107756
25	0xbd1771c4	-0.03697373
26	0x3dba19df	0.09086966
27	0x3db7e8a4	0.089799196
28	0xbb0c38d8	-0.0021396186
29	0xbd9179cc	-0.07103309
30	0xbd9a16b1	-0.07523859
31	0xbd908969	-0.07057459
32	0x3d98b277	0.074559145
33	0xbdcc1004	-0.09963992
34	0x3c4033b0	0.011731073
35	0xbd3d93d4	-0.046283558
36	0x3d7fff61	0.062499408
37	0x3defc980	0.11708355
38	0xbd911f42	-0.0708604
39	0xbd8c1947	-0.06840759
40	0x3d85245e	0.06501077
41	0xbced9466	-0.029001426
42	0x3df5d7da	0.12004061
43	0xbd6563f4	-0.056003526
44	0x3d10163e	0.03517746
45	0x3decf418	0.11569995
46	0x3c816150	0.015793473
47	0x3afffb80	0.0019529909
48	0xbd4854ec	-0.048909113
49	0x3de189ea	0.11012633
50	0xbda73a3b	-0.081654035
51	0xbd818d34	-0.063257605
52	0xbda4bd0f	-0.080438726
53	0x3d6e023c	0.0581076
54	0xbdbcc106	-0.09216504
55	0x3bb02340	0.005375296
56	0xbaa5d044	-0.0012650569
57	0x3daf687a	0.08564849
58	0x3b4b62c0	0.0031034201
59	0x3dc3f1e0	0.09567618
60	0x3dcf78b8	0.10130447
61	0xbd8affa2	-0.06787039
62	0x3d0f9c94	0.035061434
63	0xbdbc6869	-0.09199602

critic_head.0.weight f4 [128, 64]
0	0x3cb4f33e	0.022088643
1	0xbc2bb4b5	-0.010480096
2	0x3d65288a	0.055946864
3	0x3d19ed7c	0.03758
4	0xbde3d202	-0.1112404
5	0xbdebc168	-0.11511499
6	0x3de9b102	0.11410715
7	0xbd8aeb7a	-0.06783195
8	0xbd0f4b94	-0.034984186
9	0x3d496844	0.0491717
10	0xbddab42a	-0.10678895
11	0x3cf345d1	0.029696377
12	0xbd2ea8cc	-0.042641446
13	0xbd12a20c	-0.03579907
14	0xbd426ebd	-0.04746889
15	0x3d3a9b01	0.04555798
16	0xbda59184	-0.080843955
17	0x3d20e974	0.03928514
18	0x3dbbd107	0.09170728
19	0x3c49c890	0.012315884
20	0xbc10b9aa	-0.008833328
21	0x3d02c097	0.03192195
22	0x3ce61d77	0.028090222
23	0x3d2c6d70	0.042096555
24	0x3bbbc1ad	0.005729875
25	0xbd485540	-0.048909426
26	0xbd068532	-0.03284187
27	0x3bcc655a	0.006237668
28	0xbdd688b5	-0.104752935
29	0x37a4ab7b	1.9630175e-05
30	0xbd460830	-0.048347652
31	0x3de8b5f9	0.113628335
32	0xbc33c060	-0.010971159
33	0xbd785c74	-0.060635045
34	0xbd12c30f	-0.035830554
35	0xbdf4ea65	-0.1195877
36	0x3dceb688	0.10093409
37	0x3d8a2672	0.06745614
38	0xbd904d3e	-0.07045983
39	0xbd95f7bb	-0.073226415
40	0x3d6f8763	0.058478724
41	0x3d71d2f0	0.059039056
42	0xbde63682	-0.11240865
43	0x3d4c6674	0.049902394
44	0xbd8fe4cf	-0.07026064
45	0xbdbb0ff2	-0.09133901
46	0xbd4cede0	-0.050031543
47	0xbdbf77d2	-0.09349026
48	0xbd713a24	-0.058893338
49	0x3da23f50	0.07922232
50	0x3d30c8cf	0.043160256
51	0xbdfb05c5	-0.1225696
52	0xbdbee560	-0.093210936
53	0xbd488b4c	-0.04896097
54	0x3daff40c	0.0859147
55	0x3c14ce40	0.009082377
56	0x3d7a86e9	0.061163817
57	0xbdee079c	-0.11622545
58	0x3dc6db60	0.09709811
59	0xbce97ee0	-0.028502882
60	0xbcc5f548	-0.02416481
61	0xbd4b9428	-0.04970184
62	0xbdfd3951	-0.12364448
63	0xbe008828	-0.1255194
64	0x3cf3d313	0.029763734
65	0xbdfcbc04	-0.12340549
66	0xbdd57ffd	-0.104248025
67	0xbdab7056	-0.08371036
68	0xbde109da	-0.10988207
69	0x3d98bb6a	0.074576214
70	0x3d0e4a44	0.034738794
71	0x3dc3fbe0	0.09569526
72	0xbd815419	-0.063148685
73	0xbdf4f9c6	-0.11961703
74	0x3cfab8b0	0.030605644
75	0x3d8eaf5b	0.0696704
76	0xbda377bc	-0.07981822
77	0x3d85acf5	0.065271296
78	0x3de7611f	0.11297821
79	0xbdb04312	-0.08606543
80	0xbde059a2	-0.10954596
81	0x3cc5e7ef	0.024158446
82	0xbdbf6672	-0.09345712
83	0xbd191b48	-0.037379533
84	0xbdabb02d	-0.08383212
85	0xbce20be0	-0.027593553
86	0x3d4e9669	0.05043641
87	0x3dfada1f	0.122486345
88	0x3d9a6736	0.07539217
89	0xbc55ad50	-0.013041809
90	0x3d0ebe16	0.03484925
91	0xbdeef334	-0.11667481
92	0xbdf690ca	-0.12039335
93	0x3db861a8	0.090030015
94	0xbdcdd42d	-0.10050235
95	0xbdb21284	-0.08694938
96	0xbd90e298	-0.07074469
97	0x3cefd0a0	0.029274285
98	0x3b66a246	0.0035191937
99	0x3c905181	0.01761699
100	0xbcf79af2	-0.03022525
101	0x3d39de45	0.04537799
102	0x3de03d26	0.10949163
103	0xbcc30a5e	-0.023808654
104	0x3c83da60	0.01609534
105	0x3c35440a	0.011063585
106	0x3c0e24da	0.008675778
107	0xbdcb35f8	-0.09922403
108	0xbd9f0fed	-0.077667095
109	0xbd09be3e	-0.033628695
110	0xbdd9963a	-0.106243566
111	0x3c2bb290	0.010479584
112	0x3db6ddaa	0.08928998
113	0x3d937e40	0.07201815
114	0x3df35a60	0.11882472
115	0x3df1c75e	0.118056044
116	0xbe01091c	-0.12601131
117	0x3dd70364	0.104986936
118	0x3dbfc7fe	0.09364317
119	0x3d99a414	0.075019985
120	0xbc1741c2	-0.0092319865
121	0xbda4b649	-0.08042581
122	0xbdf7a272	-0.12091531
123	0x3da895ea	0.08231719
124	0xbd95e3bf	-0.0731883
125	0x3bec0160	0.0072023124
126	0xbda5727e	-0.08078478
127	0xbdbde0ab	-0.09271368
128	0x3da25098	0.07925528
129	0xbdd42ff4	-0.10360709
130	0x3d1476bd	0.03624605
131	0xbd993a84	-0.07481864
132	0x3da6d91c	0.08146879
133	0xbdd16b40	-0.102255344
134	0xbd25bb88	-0.040462047
135	0x3d39da24	0.04537405
136	0xbda5da35	-0.0809826
137	0x3d959d8a	0.07305439
138	0x3db00b59	0.085959144
139	0x3da01b6d	0.07817731
140	0x3d0b36e0	0.03398788
141	0xbcff82ac	-0.031190239
142	0xbd29287f	-0.041298386
143	0xbd78505c	-0.06062351
144	0x3d7657dc	0.060142383
145	0xbd2aaf78	-0.041671246
146	0xbcd9d673	-0.026591515
147	0xbd86af3a	-0.065763906
148	0x3e00a2a8	0.12562048
149	0xbd841888	-0.064499915
150	0x3db93822	0.090439096
151	0xbd6b7338	-0.057482928
152	0x3d48a842	0.04898859
153	0x3d8a3d2a	0.06749947
154	0xbdea221e	-0.114322886
155	0x3d504cf8	0.050854653
156	0xbd860308	-0.06543547
157	0xbb9435e0	-0.004523024
158	0xbcd28bdf	-0.025701461
159	0x3d1fe6ff	0.039038654
160	0x3c8f5384	0.017495878
161	0xbb82637f	-0.003979146
162	0xbd91371c	-0.070905894
163	0xbd4278f8	-0.047478646
164	0xbdf38855	-0.11891238
165	0xbda00165	-0.07812766
166	0xbcd26628	-0.025683478
167	0x3b24b193	0.0025130257
168	0x3dacdeeb	0.08440956
169	0x3dc4e670	0.09614265
170	0x3ca30950	0.019901901
171	0x3d0b97a8	0.034080178
172	0xbc4f92b9	-0.012669259
173	0x3dd50657	0.104016
174	0x3d115ed4	0.035490826
175	0xbbf2cd20	-0.0074097067
176	0xbd87cd50	-0.06630957
177	0xbd9bd938	-0.076097906
178	0x3cfa20d8	0.03053324
179	0x3d4c64ec	0.049900934
180	0x3d9a3c67	0.07531052
181	0x3dea2e16	0.114345714
182	0xbde5b5c2	-0.11216308
183	0x3d954002	0.07287599
184	0x3ca12670	0.019671649
185	0x3daebca0	0.08532071
186	0xbdd71c70	-0.10503471
187	0xbd0e428c	-0.034731433
188	0x3d8706a8	0.065930665
189	0xbbc0c380	-0.0058826804
190	0x3de708c5	0.112809695
191	0x3dfae7d3	0.12251248
192	0x3decb89d	0.1155865
193	0xbd01dd9c	-0.031705484
194	0xbd11a60a	-0.035558738
195	0xbdf20bdc	-0.11818668
196	0xbdd877e4	-0.10569742
197	0xbdad1ae4	-0.084523946
198	0x3d304c04	0.043041244
199	0xbdd57d06	-0.10424237
200	0xbc976cb4	-0.01848445
201	0x3df443f4	0.119270235
202	0xbdb5bf5f	-0.08874392
203	0x3def81b3	0.1169466
204	0xbccf4d80	-0.02530551
205	0x3db38210	0.08765042
206	0xbd81f5bd	-0.06345699
207	0x3d816687	0.06318384
208	0xbd1e7664	-0.038687125
209	0xbc9a6870	-0.018848628
210	0xbdc4dd5c	-0.096125335
211	0xbd89cf94	-0.067290455
212	0x3bcee0f9	0.00631344
213	0x3d527a9d	0.051386464
214	0x3df36048	0.118835986
215	0xbd8a86de	-0.06764005
216	0x3d7efed0	0.062254727
217	0xbca848b0	-0.020542473
218	0x3e0651f3	0.13117199
219	0xbce4ad20	-0.027914584
220	0xbd56d4bc	-0.052448973
221	0x3dc139d8	0.09434861
222	0x3d81cec1	0.06338263
223	0x3d6c153e	0.057637446
224	0xbd823292	-0.06357302
225	0xbcc8e466	-0.024522971
226	0x3bb27720	0.0054463297
227	0xbdb0f1ef	-0.08639895
228	0x3de60b32	0.11232604
229	0x3e0258ca	0.12729183
230	0x3d242f94	0.040084437
231	0x3db08597	0.0861923
232	0xba262ad4	-0.00063387793
233	0xbd94af69	-0.07260019
234	0x3bb064e0	0.005383119
235	0x3c953b20	0.01821667
236	0xbd14b8ef	-0.03630918
237	0x3cf1ce85	0.029517421
238	0xbdba8d1a	-0.09108944
239	0x3d6b5c60	0.057461143
240	0xbcfa23b0	-0.030534595
241	0xbc969448	-0.018381253
242	0x3dea5680	0.1144228
243	0xbae86c80	-0.0017732531
244	0x3dcd09ef	0.1001166
245	0xbdb1bc9e	-0.08678554
246	0xbd402400	-0.046909332
247	0x3d8413de	0.06449102
248	0x3e083917	0.13303028
249	0x3caa235e	0.020768818
250	0x3dafeb36	0.08589785
251	0xbdbcf8ca	-0.0922714
252	0x3dcd3214	0.10019317
253	0x3caaa3c0	0.020830035
254	0xbbf0fd54	-0.007354418
255	0x3e019809	0.12655653

critic_head.0.bias f4 [128]
0	0x3cab7195	0.020928184
1	0x3db20c7b	0.08693787
2	0xbd9afb58	-0.07567471
3	0xbd992689	-0.07478053
4	0x3d3fbd4c	0.046811387
5	0x3d9fa8bf	0.07795858
6	0x3d561c49	0.05227307
7	0xbdcff61e	-0.10154365
8	0x3c05ce5e	0.008166878
9	0x3d4e3373	0.050342035
10	0xbda36ccb	-0.07979735
11	0x3db66a69	0.08907015
12	0x3c05052e	0.008118911
13	0xbbb174d6	-0.0054155393
14	0xbd8341e2	-0.064090505
15	0x3d563d43	0.052304517
16	0xbdd779e8	-0.10521299
17	0xbc0318d3	-0.008001524
18	0xbd137034	-0.035995677
19	0xbd78a7ad	-0.060706783
20	0x3dd4a3f1	0.10382832
21	0x3e033db7	0.12816511
22	0x3dac42df	0.08411192
23	0x3d82a1ca	0.06378515
24	0xbdb61c1c	-0.0889208
25	0x3dcb94ac	0.09940466
26	0x3df0a8cc	0.117509454
27	0xbd4cf2b8	-0.050036162
28	0xbd9d2e86	-0.07674889
29	0x3d8a5baa	0.06755765
30	0x3c2fd710	0.010732427
31	0x3c8b01ef	0.016968695
32	0x3c26093e	0.010134039
33	0xbe02836e	-0.12745449
34	0x3b8c6fe9	0.0042858017
35	0x3db89ea5	0.09014634
36	0xbd3352c8	-0.04378012
37	0xbda6397c	-0.08116433
38	0xbd93ef02	-0.072233215
39	0x3e0c50ce	0.137027
40	0xbd701dd2	-0.05862219
41	0xbd01d835	-0.03170033
42	0x3da4ed40	0.08053064
43	0xbc56b598	-0.013104819
44	0xbcbe7ba5	-0.023252318
45	0xbd2d4f98	-0.042312235
46	0xbd7dffbc	-0.062011465
47	0x3db144f5	0.08655731
48	0x3d29e7dc	0.041480884
49	0x3d22e6f5	0.03977104
50	0xbd736383	-0.059421074
51	0xbd9f8e16	-0.077907726
52	0xbd71cfda	-0.059036113
53	0xbc3f4a8b	-0.011675487
54	0xbd9afb3e	-0.07567452
55	0xbdc380ba	-0.09546037
56	0x3d149d3d	0.036282767
57	0x3d85c41c	0.065315455
58	0x3c4ce0d1	0.012504772
59	0x3ddb75cb	0.107158266
60	0xbd4777d4	-0.04869826
61	0x3da12aa5	0.07869462
62	0xbd401935	-0.04689904
63	0xbd54db73	-0.051967096
64	0xbd82dbb7	-0.063895635
65	0xbd8b08ef	-0.06788813
66	0xbd568992	-0.05237729
67	0xbd43364d	-0.047659207
68	0xbd07a8cd	-0.033119965
69	0x3e05fb04	0.13084036
70	0x3df4f4df	0.11960768
71	0xbd3fc220	-0.04681599
72	0x3dec62f5	0.11542312
73	0x3de1b7b0	0.11021364
74	0xbdbb2ce1	-0.09139419
75	0x3deaa461	0.11457134
76	0xbdffaaac	-0.12483725
77	0xbcd80fa2	-0.026374642
78	0x3c11a7d8	0.008890115
79	0xbcfb7540	-0.030695558
80	0xbcdd422d	-0.027009094
81	0xbb219b33	-0.0024659156
82	0xbd27de78	-0.040983647
83	0xbdf38878	-0.11891264
84	0xbd5cc834	-0.053901866
85	0x3d05b88f	0.032646712
86	0x3da7d53b	0.08194967
87	0xbdfa12d0	-0.122106194
88	0xbc36bbae	-0.011153145
89	0xbd03b5c4	-0.032155767
90	0xbdbe06fe	-0.092786774
91	0x3974e5f4	0.00023355318
92	0x3d624320	0.055239797
93	0x3df7f27b	0.12106796
94	0xbd968f0c	-0.07351503
95	0xbd816978	-0.06318945
96	0x3d8da1c6	0.069156215
97	0x3db659c7	0.089038424
98	0x3dd9491b	0.10609647
99	0xbc0770c0	-0.008266628
100	0x3bf4c7dd	0.0074701146
101	0x3dc03c04	0.09386447
102	0xbdff3970	-0.12462127
103	0xbd721294	-0.05909975
104	0x3e06d907	0.13168727
105	0x3d662b83	0.05619384
106	0x3c993c1c	0.01870542
107	0xbda4a7ea	-0.080398396
108	0x3dbf5e7e	0.09344195
109	0x3e0bfec6	0.13671407
110	0xbc8faa4a	-0.017537255
111	0x3d6145c9	0.054998193
112	0xbdd1f76c	-0.1025227
113	0xbe02cbc5	-0.12773044
114	0xbc8d9d68	-0.017286971
115	0x3d261b31	0.040553275
116	0x3d3d0912	0.04615123
117	0x3db62402	0.08893587
118	0x3c7561c0	0.014976919
119	0xbd3718c8	-0.044701368
120	0x3d929c22	0.07158686
121	0xbdda9846	-0.10673575
122	0xbdbeafe5	-0.09310893
123	0xbd89abf3	-0.0672225
124	0xbd61a9bc	-0.055093512
125	0x3c5cea6c	0.013483625
126	0x3d7c3a69	0.06157914
127	0x3d965f9c	0.07342455

critic_head.2.weight f4 [64, 128]
0	0xbd40af54	-0.047042206
1	0x3d077f61	0.033080462
2	0xbdb1e84b	-0.086868845
3	0xbbf26f18	-0.0073984973
4	0x3d4af3aa	0.049548782
5	0x3bf6edaf	0.0075356583
6	0xbdafac7f	-0.08577823
7	0xbd168187	-0.03674462
8	0xbda2fdbb	-0.079585515
9	0x3d72771c	0.059195623
10	0xbc983d29	-0.018583851
11	0x3d7c3b91	0.061580244
12	0x3d9eaf4e	0.077482805
13	0xbc6919e4	-0.014227364
14	0x3d8341ec	0.06409058
15	0x3d040393	0.03222997
16	0xbd853bba	-0.065055326
17	0xbd9f1484	-0.07767585
18	0x3d8a23e7	0.06745129
19	0xbc4ef427	-0.012631453
20	0xbdba7fa1	-0.091063745
21	0xbc855d93	-0.016279971
22	0xbc4394c5	-0.011937325
23	0xbd856564	-0.06513479
24	0xbd21ac14	-0.039470747
25	0xbc3833bd	-0.011242804
26	0xbd80edd2	-0.062953606
27	0xbd46f8d9	-0.048577163
28	0x3c5d53cf	0.013508751
29	0xbcb8d8a9	-0.02256425
30	0xbc8024f0	-0.015642613
31	0x3dac830f	0.08423435
32	0x3d781cf9	0.060574505
33	0xbd5c3479	-0.05376098
34	0x3d308fc7	0.043105867
35	0xbca0b056	-0.019615334
36	0x3d8858d7	0.0665757
37	0x3d2a5316	0.041583143
38	0xbd290f1c	-0.041274175
39	0xbcb5afe6	-0.022178601
40	0xbd72d1b6	-0.059282027
41	0x3ca19c7c	0.019727938
42	0xb9e36d29	-0.00043378145
43	0xbd9b9304	-0.075964004
44	0xbd1a39ac	-0.037652656
45	0xbd9882a7	-0.07446795
46	0xbc605bc4	-0.013693754
47	0x3ce78084	0.028259523
48	0xbc3369f2	-0.010950552
49	0xbd704842	-0.05866266
50	0x3d8a5e6e	0.06756292
51	0xbd4bda75	-0.049768884
52	0xbd9fae19	-0.07796878
53	0xbdaa1f22	-0.08306719
54	0xbd7fe18e	-0.062470965
55	0x3cf512d2	0.0299162
56	0xbdb2ce0e	-0.08730708
57	0xbc730c97	-0.014834545
58	0xbc51949c	-0.012791779
59	0x3cdae48b	0.026720306
60	0xbc697dae	-0.014251156
61	0xbcd1b67a	-0.025599707
62	0x3d94037d	0.07227228
63	0xbd50da50	-0.05098945
64	0xbd4d53b0	-0.05012864
65	0x3c1f44ed	0.009721023
66	0xbc18ab41	-0.009318174
67	0x3d9ec99c	0.07753298
68	0xbdae9dff	-0.08526229
69	0x3d163db0	0.036679924
70	0x3cdfafc7	0.027305497
71	0xbd9e2730	-0.07722318
72	0x3d2395a1	0.03993762
73	0x3d801c1f	0.06255364
74	0xbcf39133	-0.029732322
75	0x3d3f4efb	0.04670618
76	0xbd8d9971	-0.06914032
77	0xbd2687a5	-0.040656704
78	0x3cb58791	0.02215937
79	0x3d3aabca	0.045573987
80	0xbcaa526f	-0.02079126
81	0x3d9fa625	0.077953614
82	0x3d313f49	0.043273244
83	0x3d35e045	0.044403333
84	0xbd3327ad	-0.04373901
85	0x3d865073	0.06558313
86	0xbc264bb3	-0.010149884
87	0x3c8850de	0.016640123
88	0x3da18b07	0.078878455
89	0x3d8932bc	0.0669913
90	0x3d9ab49d	0.075539805
91	0xbd9f0493	-0.07764544
92	0xbdaae547	-0.083445124
93	0x3d50644c	0.0508769
94	0xbca61bda	-0.020276953
95	0xbd92df2a	-0.071714714
96	0x3d5171b0	0.05113381
97	0x3ca6de61	0.02036971
98	0xbc8654cf	-0.016397862
99	0xbad6efde	-0.001639839
100	0x3d2e96b7	0.0426242
101	0x3c934ba0	0.017980397
102	0x3d70afa0	0.05876124
103	0x3cadbfe3	0.021209663
104	0xbd22fc64	-0.03979148
105	0x3d803f1d	0.06262038
106	0xbdb0a4f6	-0.08625214
107	0x3d82074d	0.06349049
108	0x3d8e372c	0.06944117
109	0xbd1f78a1	-0.0389334
110	0xbc413d3f	-0.011794387
111	0xbc9b9315	-0.018991033
112	0x3d8a616b	0.06756862
113	0xbd41056f	-0.047124323
114	0x3cd1628f	0.025559692
115	0x3d8dea3f	0.069294445
116	0x3d716416	0.05893334
117	0xbd5dbded	-0.054136205
118	0x3d3736a2	0.044729836
119	0x3d797273	0.060900163
120	0xbd863243	-0.065525554
121	0x3d791048	0.060806543
122	0xbd493ea6	-0.04913201
123	0x3c27f47e	0.010251163
124	0x3d7f1e4b	0.06228475
125	0xbd2a9b3c	-0.04165195
126	0xbd3395fb	-0.043844204
127	0xbdb09995	-0.086230434
128	0x3db3dde7	0.08782559
129	0x3d894dda	0.06704302
130	0x3d0b63ef	0.03403085
131	0x3d99db1d	0.07512496
132	0xbcd2ac23	-0.025716847
133	0x3c188bd4	0.009310681
134	0xbd8a994c	-0.0676752
135	0xbce027cb	-0.027362725
136	0x3d6dc1a4	0.058046
137	0xbd05883d	-0.03260063
138	0xbc895964	-0.016766258
139	0x3d740dd8	0.059583515
140	0x3d789939	0.060693
141	0xbd6000e9	-0.054688368
142	0x3d8435b4	0.064555556
143	0x3b313cec	0.002704437
144	0x3c917789	0.017757194
145	0xbd47b9ee	-0.0487613
146	0x3d04767d	0.03233956
147	0x3cfb4f29	0.030677395
148	0xbd8bea8c	-0.06831846
149	0xbd484ce6	-0.04890146
150	0x3d3c8eee	0.046034746
151	0x3d7529f8	0.059854478
152	0xbd931331	-0.07181395
153	0x3d1084e6	0.03528299
154	0xbd4885f9	-0.04895589
155	0xbd2fc69b	-0.042914014
156	0xbbc3e6c1	-0.0059784357
157	0x3ca957cf	0.020671753
158	0xbd3545ce	-0.044256024
159	0x3d99723a	0.0749249
160	0x3d8b9661	0.06815792
161	0xbd4da0b8	-0.0502021
162	0xbd8bc7e9	-0.06825239
163	0xbc8c0ca8	-0.017095879
164	0xbd96b98d	-0.0735961
165	0xbcf9c0c0	-0.030487418
166	0x3ccd8234	0.0250865
167	0xbd1af0de	-0.037827365
168	0x3db2950f	0.08719837
169	0xbcbf891b	-0.023380807
170	0x3a75ec8b	0.0009381256
171	0xbd63e424	-0.055637494
172	0x3da5a8b3	0.080888174
173	0x3d8f4b13	0.06996741
174	0xbdaff6db	-0.08592006
175	0x3d0d502b	0.034500282
176	0xbc92763f	-0.01787865
177	0xbd933882	-0.071885124
178	0xbbc097fe	-0.005877494
179	0x3d681e2c	0.0566694
180	0x3d2f2c9a	0.042767145
181	0x3c9cec6a	0.0191557
182	0x3d5ade12	0.05343444
183	0x3ce63422	0.02810103
184	0x3d43018a	0.04760889
185	0x3dad25ab	0.0845445
186	0xbd08202b	-0.033233803
187	0x3adf3711	0.0017029961
188	0x3c8997f3	0.016796088
189	0xbd334620	-0.04376805
190	0xbd690a5e	-0.056894653
191	0xbd0fc5ae	-0.03510063
192	0x3d6a91d9	0.057267997
193	0xbda899e1	-0.08232475
194	0xbda06477	-0.07831662
195	0x3d45594f	0.048180874
196	0x397f3e53	0.00024341913
197	0xbd460b8b	-0.048350852
198	0xbd84ac88	-0.0647822
199	0x3cddc775	0.027072648
200	0x3d43118f	0.047624167
201	0x3d671329	0.056414757
202	0x3d8c1beb	0.068412624
203	0xbd68ebb8	-0.056865424
204	0x3d839510	0.06424916
205	0xbc96478f	-0.018344669
206	0xbd7198f6	-0.058983766
207	0xbc8ba007	-0.01704408
208	0xb9808882	-0.0002451577
209	0x3daa258e	0.08307944
210	0x3d1f6a64	0.03891982
211	0xbd107a75	-0.035273034
212	0xbca9f7fe	-0.020748135
213	0xbd9d255b	-0.076731406
214	0xbda4e02b	-0.08050569
215	0x3c3bb623	0.011456999
216	0x3d691852	0.05690796
217	0xbd36b468	-0.044605643
218	0x3cdf0028	0.027221754
219	0x3c908d38	0.017645463
220	0xbda9cca6	-0.08290987
221	0xbd2bbe1f	-0.04192936
222	0x3d90f139	0.070772596
223	0xbd847102	-0.06466867
224	0x3bd1dae1	0.006404266
225	0xbd27c303	-0.040957462
226	0xbdb277d8	-0.08714265
227	0xbd5e0a29	-0.05420891
228	0xbcea6a0d	-0.028615022
229	0xbda844ec	-0.08216271
230	0xbd50f281	-0.05101252
231	0xbd47220e	-0.04861646
232	0x3ce67a7e	0.02813458
233	0xbcc3b886	-0.023891699
234	0x3d894175	0.06701938
235	0x3c8c71f3	0.017144179
236	0x3dab09ad	0.08351455
237	0x3cb20ec1	0.02173555
238	0xbd944706	-0.07240109
239	0xbd8ea53d	-0.069651105
240	0xbd8ad35c	-0.06778595
241	0xbd285201	-0.04109383
242	0x3d87288d	0.06599531
243	0xbdaee30e	-0.08539401
244	0x3d4c7aea	0.049921907
245	0x3d4e28d0	0.05033189
246	0x3d4ee411	0.05051047
247	0x3ce07615	0.027400056
248	0x3d791f93	0.060821127
249	0xbcb23a54	-0.021756329
250	0xbcdef033	-0.027214145
251	0xbdac4bf5	-0.08412925
252	0x3ccd958f	0.02509573
253	0xbd54d5c5	-0.05196168
254	0x3c556b17	0.0130260205
255	0x3b9234d7	0.0044618654

critic_head.2.bias f4 [64]
0	0xbc1d08a3	-0.009584579
1	0xbd3b6540	-0.045750856
2	0x3d4661d8	0.048433155
3	0x3ceed78e	0.029155519
4	0xbd945a73	-0.07243814
5	0x3c2d8960	0.010591835
6	0x3d5869a4	0.05283512
7	0x3bc73db2	0.0060803527
8	0xbcf47248	-0.02983965
9	0xbc8d1681	-0.017222645
10	0xbba85259	-0.0051367697
11	0xbd923365	-0.07138709
12	0x3dae2cfd	0.085046746
13	0xbd62c2a4	-0.055361405
14	0x3dbfb8f5	0.0936145
15	0x3c82c748	0.015964165
16	0x3d88cbcb	0.066794954
17	0x3d86c2fd	0.0658016
18	0xbbf72acf	-0.007542945
19	0x3cb10098	0.021606728
20	0x3d5a862c	0.053350613
21	0xbcd27830	-0.025692075
22	0x3d3daa31	0.046304885
23	0x3cd2278e	0.025653627
24	0xbd941200	-0.07229996
25	0x3da597ef	0.0808562
26	0x3d945f60	0.07244754
27	0x3d1a7e86	0.03771832
28	0xbdafdd5e	-0.08587144
29	0xbd88933e	-0.06668709
30	0xbd7cd7b6	-0.061729155
31	0x3d84cf65	0.0648487
32	0x3ccfce84	0.025367029
33	0x3d924b58	0.07143277
34	0x3bbadb86	0.0057024388
35	0x3d4d1ea0	0.050078034
36	0x3d84eb3e	0.064901814
37	0x3d30f9d5	0.04320701
38	0x3d9a61b9	0.0753817
39	0x3d8527c7	0.065017276
40	0xbd319c6a	-0.04336206
41	0xbd08c91f	-0.03339493
42	0xbc4df96f	-0.012571677
43	0x3cf91dd2	0.030409727
44	0xbd24b1ea	-0.040208735
45	0xbdb149cc	-0.08656654
46	0xbd0f2236	-0.034944735
47	0x3d8197c8	0.06327778
48	0x3c8ffdcb	0.017577073
49	0xbd295ace	-0.041346364
50	0xbcb9fd41	-0.022703769
51	0xbd94cf5c	-0.07266113
52	0xbd9ec508	-0.077524245
53	0x3d6e1a18	0.058130354
54	0xbd4a880d	-0.049446154
55	0x3a26ee71	0.0006367928
56	0x3da6c317	0.08142679
57	0x3d52e723	0.05148996
58	0x3d8ddbc5	0.06926683
59	0x3d04ff21	0.032469872
60	0x3c703114	0.014660139
61	0xbd8fce6c	-0.07021794
62	0xbd2de77d	-0.042457093
63	0xbdaf955b	-0.08573409

critic_head.4.weight f4 [1, 64]
0	0x3d3fb1a8	0.046800286
1	0xbd84d9d4	-0.0648686
2	0xbc3a4b90	-0.011370555
3	0x3dbd49a6	0.09242563
4	0x3d19cf97	0.03755149
5	0xbcc5d93c	-0.024151437
6	0xbcdd1665	-0.026988218
7	0x3d66e4aa	0.056370415
8	0x3d95709f	0.072968714
9	0xbded136a	-0.115759686
10	0xbdedab50	-0.11604941
11	0xbd1aa8e4	-0.037758723
12	0xbd4d989b	-0.050194364
13	0x3ddcbae1	0.10777832
14	0xbd8c152a	-0.06839974
15	0x3dc9475f	0.09828066
16	0xbd5aa9e8	-0.05338469
17	0xbcb8f02b	-0.022575459
18	0x3d31fbc8	0.043453008
19	0x3dc7e9ce	0.097613916
20	0x3cd50011	0.026001008
21	0x3dfbcd0a	0.122949675
22	0xbdbfd02d	-0.09365878
23	0xbdf98798	-0.121840656
24	0xbc2ec2a0	-0.010666519
25	0xbe02a12e	-0.12756798
26	0x3d8c972a	0.0686477
27	0xbd93750e	-0.07200061
28	0x3d9c41c8	0.07629734
29	0xbc1f3040	-0.009716094
30	0x3da0b9c5	0.07847933
31	0xbd039ae9	-0.032130156
32	0x3dcf78da	0.101304725
33	0xbd414286	-0.047182582
34	0xbc49f046	-0.012325352
35	0xbcdf85f6	-0.027285557
36	0xbdc20bec	-0.0947493
37	0x3b827e3b	0.003982333
38	0xbdc68a9c	-0.096944064
39	0xbc7427de	-0.014902083
40	0x3d8d3b24	0.06896046
41	0xbd989e9a	-0.07452126
42	0x3ca80baf	0.020513384
43	0x3d4b1831	0.049583618
44	0x3d8ad958	0.06779736
45	0xbd8d85cc	-0.06910285
46	0x3c997c61	0.018736066
47	0xbc12c52b	-0.008958141
48	0x3ad879c5	0.0016515782
49	0xbd3e5f18	-0.046477407
50	0x3dea4ee6	0.1144083
51	0x3d07caa0	0.033152223
52	0xbd9d08e2	-0.0766771
53	0xbd636f02	-0.055525787
54	0xbcffe19e	-0.031235512
55	0xbdb5b08f	-0.088715665
56	0xbd8fda26	-0.070240304
57	0x3df25a08	0.11833578
58	0x3d8c8c22	0.06862666
59	0xbda4e357	-0.08051174
60	0xbd85fa7b	-0.06541916
61	0xbd146958	-0.036233276
62	0x3d03f920	0.032220006
63	0x3d2e00ed	0.04248135
