Training results of three types of reinforcement learning/site_differentiation_model/best_agent.pth (torch, 107068 bytes, 10 tensors)

shared.0.weight f4 [128, 4]
000000 f8 e7 13 be f8 b4 aa be 70 c7 0a 3d 00 97 92 bb
       -0.14443958 -0.33341193 0.033881605 -0.004473567
000010 36 8a 4e be aa 9f 62 3e ca 6b 2e be 61 21 40 3e
       -0.20169911 0.2213122 -0.17033306 0.18762733
000020 68 0a e3 3e 74 aa 87 3e df 03 c7 3d 44 88 a5 be
       0.44343877 0.26497233 0.09717535 -0.32330525
000030 2f 8b e5 3e b7 41 1c be 13 bf a1 bc 88 d5 25 3e
       0.4483275 -0.15259443 -0.019744432 0.16194737
000040 4d 94 86 3e eb 8e c1 3d 00 26 cb 3e 16 61 89 3e
       0.2628502 0.094510876 0.3967743 0.26831883
000050 2b 59 9c bd 40 6d 80 bc d1 cc ac 3e 07 03 6a be
       -0.07634195 -0.015677094 0.33750013 -0.22852717
000060 3b 6b 1e 3e 3f 9d c6 be 2a 43 07 3e 24 37 d0 3e
       0.15470593 -0.38791844 0.13209215 0.4066707
000070 22 ba f3 3e 9e 60 9b be 4f b8 be be dd d7 0f be
       0.47602946 -0.3034715 -0.3724999 -0.14047189
000080 e4 77 28 3d ff 18 47 be 17 f2 0d 3d 42 93 86 be
       0.04112996 -0.19443129 0.034654703 -0.26284224
000090 72 6a 33 bd 52 d1 03 3f d3 89 bf bd 42 78 d1 3e
       -0.043802686 0.5149127 -0.0935246 0.40912062
0000a0 eb f2 b6 be 6c 44 f7 be 5d bc 87 3d d3 6a 25 3e
       -0.35732207 -0.4829439 0.06627724 0.16154031
0000b0 96 d0 ce be 0c 0e 86 3e fc 62 1e be e0 e6 75 be
       -0.40393513 0.26182592 -0.15467447 -0.24013853
0000c0 4e ba b6 3e 6b d7 e1 3e 9b 71 d9 be 20 9a 1d 3e
       0.35689014 0.44109663 -0.42469487 0.15390825
0000d0 59 e0 82 bd 2e fb 7b 3e 50 d8 b8 be d8 78 c0 3e
       -0.06390447 0.24607536 -0.36102533 0.37592196
0000e0 7f 14 f1 3e 0d d7 ea be 63 bc 88 be a2 e2 94 3e
       0.4708595 -0.45867196 -0.26706228 0.29079157
0000f0 89 a1 90 be 4b 22 d8 3e 5a 9a 38 3d ca 0d 80 3e
       -0.28248242 0.42213663 0.045069076 0.2501052
000100 18 a3 d4 be a8 7f 21 be 2b 1b f1 3e 13 be 80 be
       -0.4153068 -0.15771353 0.4709104 -0.25145015
000110 f8 4e db be de a8 fe 3e fa ef 09 3e c8 0f 22 be
       -0.42833686 0.4973821 0.1347045 -0.15826333
000120 bf 54 e6 3e 40 8c 44 be 2d 66 98 be ed d1 39 3d
       0.4498653 -0.19194126 -0.29765454 0.045366216
000130 6f cb 94 3e 69 d7 46 be ed 2f 3f be f0 55 20 3e
       0.29061458 -0.1941811 -0.18670626 0.15657783
000140 31 11 6c 3e 79 5b 69 bd 50 90 82 3e 00 43 a0 3e
       0.23053433 -0.056972 0.25500727 0.31301117
000150 ea 16 f3 be 60 34 44 bd fa bd fb be 7c 7d 11 3e
       -0.4747842 -0.04790151 -0.49168378 0.14208025
000160 14 37 e2 3e cf dc 42 3e 83 64 a9 be 11 04 82 3e
       0.44182646 0.19029544 -0.33084497 0.25393727
000170 2f 33 4f bd 48 6a d1 3e 78 3e d9 3e b5 f9 b6 3d
       -0.05058592 0.409014 0.42430472 0.089343466
000180 08 18 89 3e 84 fb 79 be dc aa c6 be ee e0 9c bd
       0.26776147 -0.24412352 -0.3880223 -0.076600894
000190 bc 1a b3 be 60 e1 9c be 4c c9 0c be 0f da dd be
       -0.34981334 -0.30640697 -0.13748664 -0.43330428
0001a0 76 82 33 bd f7 d4 ff 3d 66 bb 57 be ca 18 8d 3b
       -0.04382559 0.12491792 -0.2106758 0.0043059336
0001b0 73 43 e7 be 68 45 ea be 99 64 ad 3e c3 06 c3 be
       -0.45168647 -0.45756078 0.33865812 -0.38091096
0001c0 1a bc 97 be ea 79 ca be f0 65 cc be 8c 34 ba 3e
       -0.29635698 -0.39546138 -0.39921522 0.36368215
0001d0 12 8a ef be 8e c3 54 3e 20 d9 82 3d 8f 6b fa bb
       -0.46785027 0.20777723 0.063890696 -0.0076422165
0001e0 7f 87 69 3e 1f 28 23 3d d1 7e ce be 6d 55 24 3e
       0.22805594 0.039833184 -0.40331128 0.16048212
0001f0 60 62 c1 bd 00 9f 7b bd aa 15 9c be b4 64 dc 3e
       -0.09442592 -0.06143093 -0.30485278 0.4304558
000200 eb a7 f4 3d 81 d4 e2 3e fe a7 ec be 05 bc 14 bd
       0.1194609 0.44302753 -0.46221918 -0.036312122
000210 e0 30 09 be 16 9d ac 3e b9 a7 29 bd b3 43 b6 3c
       -0.1339755 0.33713597 -0.04141972 0.022249078
000220 8f 75 fb 3e 32 7a 2b 3e 64 c5 62 3d a4 d2 bd bd
       0.49113128 0.16745833 0.055364028 -0.09268692
000230 76 5a b3 3e 57 be d7 be ae 4d d7 bd 67 98 a0 3e
       0.35029954 -0.42137405 -0.10512863 0.31366274
000240 08 0a 0d be 74 ae a3 be 34 d6 b9 3e cc bc 4e be
       -0.13773358 -0.31969035 0.36296237 -0.20189208
000250 0c 9a 63 3e b0 9a ad 3d d0 61 07 be 80 56 f7 be
       0.22226733 0.0847677 -0.13220906 -0.48308182
000260 61 38 e2 3e 91 1c 9e be d2 e2 a0 be 30 d5 1c 3e
       0.4418364 -0.3088117 -0.3142305 0.153157
000270 5b 82 00 3f 98 49 42 3e f8 75 be bd 37 7f 10 3e
       0.50198907 0.18973386 -0.092998445 0.14111029
000280 e8 00 dd 3e 90 03 45 be 3e d2 eb be 03 9c de 3d
       0.43164754 -0.1923964 -0.4605884 0.108696006
000290 a6 8f 56 3e 10 2a 07 bd 4d aa 6a 3e 6d 85 de bd
       0.20953235 -0.0329991 0.22916527 -0.10865293
0002a0 00 8f ad 3c 2a c2 be be ec 3d b6 3e 68 39 f1 bd
       0.021186352 -0.3725751 0.35594118 -0.117785275
0002b0 08 f7 e7 bd f4 54 19 be 5e 79 8b be 1e b9 94 3e
       -0.11326414 -0.14973813 -0.27241033 0.29047483
0002c0 28 77 48 be c4 0f 5c be cc 58 d3 3e 40 2d 27 be
       -0.19576705 -0.21490389 0.41278684 -0.16325855
0002d0 f3 d9 e2 3e bf 93 01 3f b9 53 d8 3e cf ee 31 be
       0.44306907 0.5061607 0.42251375 -0.17376254
0002e0 f0 1c 99 3e 20 25 82 bd 9a c2 fb 3e c0 a7 2c be
       0.2990489 -0.06354737 0.49171907 -0.16860867
0002f0 97 a2 b1 3e a6 fa 35 be 74 9f be be 1d cf 0c be
       0.3469436 -0.17771396 -0.37231028 -0.13750882
000300 1e fd da be 88 6b c5 bd 8c a7 51 be f0 7f 58 3d
       -0.42771238 -0.096396506 -0.2047407 0.052856386
000310 6c 0b 5a 3e ca 11 f9 be 5c 6c 85 3e fa 6c 9b be
       0.2129342 -0.48646384 0.26059234 -0.3035658
000320 05 0d de be a0 07 a8 be 71 b0 d4 3e 9f 38 ee bd
       -0.43369308 -0.32818317 0.41540864 -0.11631893
000330 ba ca fc 3e b8 4d 75 be 05 f1 9f 3e c0 90 e9 be
       0.49373418 -0.23955429 0.3123857 -0.45618248
000340 9a 3d 7a 3e b3 9d a8 bd d3 93 91 3e 50 a4 ba be
       0.24437562 -0.08233204 0.28433093 -0.36453485
000350 68 71 c9 3e 1f 2b 77 bd 7a 87 d3 3e a1 e2 b5 3e
       0.39344335 -0.060343858 0.41314298 0.35524467
000360 03 0e 3e be 33 dd 92 be 24 e7 bb 3d a2 d6 ff 3e
       -0.18560033 -0.28684387 0.09174946 0.4996844
000370 08 ed 83 be 55 86 dd 3e cc f8 5b be 29 cf c2 be
       -0.25766778 0.4326655 -0.21481627 -0.38048676
000380 25 0b c4 3e 01 ce f8 be e1 05 e1 3e fc 0f 94 3e
       0.38289753 -0.48594669 0.43949798 0.28918445
000390 83 e5 97 be fd da 9c 3c 0c 0d 82 3d be 92 bc 3d
       -0.2966729 0.01914739 0.06350145 0.09207676
0003a0 dd 2e b1 be 9b 6d 17 3e e1 59 a2 3e 61 8c c2 be
       -0.34606066 0.14787905 0.31709197 -0.37997726
0003b0 9b 6e 9e 3e c1 80 01 3e 1b 5a 64 3d 20 6d 2a be
       0.3094376 0.12646772 0.055749994 -0.1664319
0003c0 18 77 b6 be 80 0f 21 be 0d 18 e4 bd 51 f3 be 3e
       -0.35637736 -0.15728569 -0.111374 0.3729501
0003d0 1e ec 99 be a9 62 f8 3e bf f0 67 be 7b 33 b2 3e
       -0.30062956 0.48512772 -0.22650431 0.348049
0003e0 77 9f 34 3d 7a 83 5a 3c a1 5d 9a 3e 91 e2 b1 be
       0.04409739 0.0133370105 0.30149558 -0.3474317
0003f0 f7 1b 87 3d 9b 66 a1 3e 26 49 09 be 6d 08 04 3f
       0.06597131 0.31523594 -0.1340681 0.51575357

shared.0.bias f4 [128]
000000 10 e7 9a be 39 32 04 bd 03 20 88 be e6 be a9 3e
       -0.30254412 -0.03227446 -0.26586923 0.33153456
000010 11 7c 39 3c bc fc 23 3b ba 23 91 3e 60 37 bc be
       0.011321084 0.0025022468 0.2834757 -0.36760998
000020 aa 83 96 3e b2 a1 20 be 9f 34 16 3e 88 56 17 be
       0.29397327 -0.15686682 0.14668511 -0.14779103
000030 75 76 bb 3e ad fd 01 bf 9a 78 8c 3b eb a6 d0 3e
       0.36613813 -0.50777704 0.0042868378 0.40752348
000040 6e 8f e5 3e c1 1b a1 3e d3 e0 55 be 0c ae e8 3e
       0.4483599 0.31466487 -0.20886545 0.45445287
000050 73 38 ac 3e bc 96 aa be e9 f4 f5 bd 0e 52 fc 3d
       0.33636817 -0.33318126 -0.120096035 0.12320338
000060 8d 21 83 bd 79 82 21 3e 27 14 f0 bd 01 b2 39 3e
       -0.06402884 0.15772428 -0.11722594 0.1813431
000070 0a 3d d8 be 61 04 e6 3c c3 49 e9 bc ba 47 ab be
       -0.4223407 0.02807826 -0.028477555 -0.3345316
000080 1e 8c ef be 68 2a 86 3e 42 e5 9e 3b 7a c7 6b 3d
       -0.46786588 0.26204228 0.004849107 0.057563283
000090 20 e5 31 be cc fd 7c be e9 71 e4 3d 77 cd e7 3e
       -0.1737256 -0.24706191 0.11154539 0.45273945
0000a0 3e ac 97 be 2c 98 3e 3e cc c7 45 be d8 c4 6d be
       -0.29623598 0.18612736 -0.19314498 -0.23219621
0000b0 08 f6 99 bd a2 3f 23 be 52 7c f2 be 44 17 c0 3e
       -0.0751763 -0.15942243 -0.47360474 0.3751775
0000c0 d0 3a 2f bd 62 61 8c be e5 ae 2a 3d 2e 42 ad be
       -0.042780697 -0.27418047 0.0416707 -0.33839554
0000d0 c4 d5 af bd 60 f5 c4 3d a5 ff fd 3e 87 83 53 bc
       -0.085856944 0.09617114 0.49609104 -0.0129097765
0000e0 bc 69 8d 3d 76 f4 d5 3e ab 8e 8e 3e 6c 4f 20 be
       0.06904933 0.4178807 0.27843222 -0.15655297
0000f0 a2 6d 16 bc 72 be 68 3e ea cb 56 bc e9 30 a4 be
       -0.009181412 0.22728899 -0.01311014 -0.32068565
000100 00 de 4d 3c 57 d0 ab 3d 33 b5 01 3f f6 ef f0 bd
       0.012565136 0.08389347 0.50667113 -0.11764519
000110 5c c7 56 3e 6f f1 f2 3e a5 67 3b bd 25 39 9f 3e
       0.20974487 0.47449824 -0.04575314 0.31098285
000120 02 c8 45 3e 00 f6 f1 be 2e 9a 6a 3e 60 8b 62 be
       0.19314578 -0.47257996 0.22910377 -0.2212348
000130 e4 4f 60 3e a4 92 45 be 68 76 f2 be ec 57 68 be
       0.21905476 -0.1929422 -0.47355962 -0.2268979
000140 d0 80 7c be 0f 04 c5 be 4a bd b8 be fc 25 c1 3e
       -0.24658513 -0.3847966 -0.36081916 0.37724292
000150 0c 80 95 be dc b2 83 bc 09 32 3c 3e 5f 63 b6 3e
       -0.29199255 -0.016076498 0.18378462 0.3562269
000160 90 4f c2 3e ce b8 f2 be 3b b8 77 3e ce 68 38 3e
       0.37951326 -0.4740662 0.24191372 0.1800873
000170 a8 4d fe bd 6c 17 ec 3e 0c 1d 28 be 4e 22 fd be
       -0.124171555 0.4611162 -0.1641733 -0.49440235
000180 f6 33 e2 be df 40 8b be 81 b2 e5 3c a9 d3 d1 3e
       -0.44180268 -0.2719793 0.028039219 0.40981796
000190 71 64 dd 3e 8d b2 1c 3e c6 23 cd 3e 4c 14 13 3e
       0.43240693 0.15302487 0.40066355 0.14363211
0001a0 f0 5e 94 3e 22 59 a0 be 21 d7 bd 3e 1a 54 8c 3e
       0.28978682 -0.31318003 0.37078193 0.27407914
0001b0 46 10 80 be c4 59 a4 3e 56 37 63 3e 10 45 8c be
       -0.25012416 0.32099736 0.22189078 -0.2739644
0001c0 08 84 fa bd f4 c3 29 3e 60 a8 f1 3d bb d0 d5 3e
       -0.12232214 0.16578656 0.11799693 0.4176081
0001d0 8f c8 1e be c2 0a 52 3e 94 15 9e be 20 d9 81 3c
       -0.15506195 0.20511916 -0.30875838 0.015850604
0001e0 04 3a 98 be 00 42 8a 3e ae 94 4e 3e 80 35 b2 bd
       -0.29731762 0.2700348 0.20173904 -0.087016106
0001f0 b2 2c ac 3e 4a 4a 84 3d 06 1d 59 3c 44 c4 cb be
       0.3362785 0.06459482 0.013251549 -0.39798176

shared.2.weight f4 [64, 128]
000000 c9 03 4d 3d a1 ae ad 3d ae 46 01 bd a9 71 98 bd
       0.050052438 0.084805734 -0.031561546 -0.07443554
000010 a1 2e 6b bd b5 28 ad bd 47 92 8d bd 8c 13 a0 bd
       -0.057417516 -0.0845503 -0.06912666 -0.07816228
000020 91 a5 9c bd e1 66 01 3d 6e 20 6f bd 41 86 93 bd
       -0.07648767 0.031592254 -0.058380537 -0.07203341
000030 1e 90 db ba 5b 2a 3c 3d 24 b0 e4 3b a8 72 5f 3d
       -0.0016751324 0.04593883 0.0069790054 0.054552704
000040 67 c7 d7 3c a2 2d 9a bd 56 87 e8 bc 6e 7c 8c bd
       0.0263402 -0.07528235 -0.028384846 -0.068596706
000050 fc 35 61 3d 0b 42 dc bc 7a b0 2d bd ff 1b 7d 3c
       0.054983124 -0.02688696 -0.04240463 0.015448569
000060 d9 8d 64 bc 80 44 63 bd b3 f6 e5 bc 4c 1f a7 bb
       -0.013949835 -0.05548525 -0.028071737 -0.0051001664
000070 76 b0 62 3d 7b e7 02 bd ba b4 57 3d b4 2c 63 ba
       0.055344068 -0.03195904 0.05266259 -0.0008666024
000080 7d 47 ba bc 21 69 2c bd e9 88 7c 3c e8 70 8a bd
       -0.022739166 -0.042092446 0.015413501 -0.067598164
000090 63 9c 51 3d ff 5f 81 bc f0 50 c0 bd 98 81 a7 bd
       0.051174533 -0.015792845 -0.093904376 -0.08179015
0000a0 09 de a1 3d 6a 8e bc bc 78 ed 39 3d 45 41 90 3c
       0.07903678 -0.023017127 0.045392483 0.017609248
0000b0 28 f7 a9 bd 51 c0 c5 3c 10 61 a3 bd 6d d0 8f 3d
       -0.082990944 0.024139555 -0.079774976 0.07022176
0000c0 10 b1 72 3d a0 b8 43 3d 04 3f a3 3d 77 c1 55 3d
       0.05925089 0.047783494 0.07971004 0.052186456
0000d0 04 28 b0 bc e8 75 a6 ba 64 f1 b7 3c 15 80 01 bd
       -0.021503456 -0.0012699934 0.022453971 -0.03161629
0000e0 bc 7d 2f 3d e3 80 27 3c ce 70 4c bd 8d 68 1b bd
       0.04284452 0.0102236 -0.049912266 -0.037941504
0000f0 c1 0c b1 bd d3 99 d6 3c f8 fc 90 bd f8 53 b3 bd
       -0.08645011 0.026196396 -0.070795 -0.0875625
000100 a2 7d 8d bd 94 ad 12 3c 85 24 40 3d eb 7c 61 bd
       -0.06908728 0.008952517 0.046909828 -0.05505077
000110 75 aa 3c 3c b2 39 2f 3d c9 b3 77 3d 2e 3a 1e 3d
       0.0115152495 0.042779632 0.06047419 0.038629703
000120 d1 ba 54 bd d1 ce 22 3d 92 eb a2 3d 8d 1b 9a bd
       -0.051935975 0.039748017 0.07955088 -0.07524786
000130 39 81 a9 3d 70 2a a8 3d 0b 86 a5 bd 4d 12 85 3d
       0.082766004 0.08211219 -0.08082207 0.06497631
000140 0a bf ab 3c 91 5d b2 3c 55 78 3b bd 06 6b a1 3d
       0.020965118 0.021773132 -0.045769054 0.07881741
000150 7f c2 6c 3d ff 3d 2d 3d f3 2c c7 bc 4c e6 64 3d
       0.057802673 0.042295452 -0.024313426 0.05588369
000160 ec 35 8f bd 35 db 49 3d a8 5a 64 3d a6 01 84 bc
       -0.06992707 0.049281318 0.05575052 -0.016114067
000170 f6 4b 05 bd b9 be 0f bd 5b 77 59 bc 38 5c 1f 3d
       -0.032543145 -0.035093997 -0.0132730855 0.038906306
000180 1a ee 8e 3d 55 eb 7d bd fb d6 8e 3d f1 81 f7 bc
       0.06979008 -0.06199201 0.06974598 -0.030213328
000190 b9 72 cd bb 5b c3 ea 3c 10 0d 78 3d fe b1 c2 bc
       -0.0062697795 0.028657606 0.060559332 -0.023766514
0001a0 ee 02 3b bc 2c 4a a8 3d 8c 54 b8 bc fa c2 3c 3d
       -0.011414273 0.08217272 -0.022501253 0.04608438
0001b0 63 1a 13 bd 2a 79 fd bc af f3 67 bd 9a 73 80 bd
       -0.035913836 -0.030941565 -0.05662888 -0.06272049
0001c0 d2 60 e1 3c 30 77 b1 bd 06 b5 9b 3d 5e 13 f4 3c
       0.027511988 -0.08665311 0.07602887 0.029794391
0001d0 92 03 7c 3d b4 13 87 bd 64 f5 39 bd ab 4d 27 3d
       0.061526842 -0.06595555 -0.04540004 0.040845554
0001e0 83 32 03 bb b1 f0 67 3c 7c 53 53 bd 50 8a 0d 3b
       -0.002001912 0.014156506 -0.05159329 0.0021597333
0001f0 57 e6 29 3d 3e 8b 27 bc 29 30 a6 3d f3 a6 34 3d
       0.041479435 -0.010226069 0.081146546 0.044104528
000200 85 36 3a bd 1f 48 0c 3d 02 ca a0 3d 3a f3 8e 3d
       -0.04546215 0.034248468 0.0785103 0.069799855
000210 7d 43 4d 3d f1 92 9d bd c8 71 24 bd 37 fc 0d bd
       0.05011319 -0.076940425 -0.040147573 -0.03466436
000220 eb e9 cd 3d 86 a7 29 bc bb 6f 31 bc 9d d7 0b bd
       0.10054382 -0.010354882 -0.010829861 -0.03414117
000230 bd 5e ab bc e3 59 8e bd e5 3f 71 3c 4d a4 c7 3d
       -0.020919198 -0.06950738 0.014724706 0.09748135
000240 06 4c 68 3d a3 53 71 3d da 40 34 bb c4 3a 5e 3c
       0.056713127 0.058917653 -0.0027504475 0.0135638155
000250 d8 65 88 bd 4b c9 a6 bc b7 c0 fc bc d1 6f 20 3d
       -0.0666005 -0.020359656 -0.030853612 0.039169136
000260 d7 8a 15 bd 52 ae f9 3b 97 86 8b bd d0 9d 3b 3c
       -0.03650936 0.0076196576 -0.0681278 0.0114512
000270 4a d9 d5 bc b5 17 87 bd 0a 8c 41 3c 31 bd 84 3d
       -0.026104588 -0.06596319 0.011813173 0.06481398
000280 d9 15 8c bd d5 4a 45 bd c8 d3 5f bd 6a b0 85 3c
       -0.068401046 -0.04816707 -0.05464533 0.016319472
000290 cc 58 87 bd dd 10 9b 3d 62 bd 4c bd b8 4f ad 3c
       -0.066087335 0.07571576 -0.049985297 0.021156177
0002a0 21 dc 84 3c 6b 60 26 3c 8a 3d 85 3d 42 1b 7a 3d
       0.016218247 0.010154824 0.06505878 0.06106115
0002b0 9b 1d 3c bd 89 22 f4 3c 15 98 9d 3d 22 0f 4c 3d
       -0.04592667 0.029801624 0.07695023 0.04981912
0002c0 38 f5 ac bd 47 26 88 3d 02 d8 20 bd 34 f4 dd 3c
       -0.08445209 0.06647926 -0.0392685 0.027093984
0002d0 43 8e 85 3d 21 c2 41 bd 27 ae 56 3d 83 bc 15 bd
       0.06521275 -0.047304276 0.05241218 -0.036556732
0002e0 91 f6 7b 3d 99 c4 5f 3d 95 ca b4 3d 4d 07 8f bd
       0.06151444 0.05463085 0.08827702 -0.069838144
0002f0 10 67 9f 3d 03 de 89 bb 7a f1 41 bc 1a b7 45 bc
       0.077833295 -0.004207374 -0.011837358 -0.012067581
000300 52 64 a0 3d 11 e2 6c bd a5 d0 b3 ba 23 0d d7 3c
       0.078316346 -0.05783278 -0.0013718797 0.026251381
000310 9c 64 90 bc 2b 93 ef 3c 97 09 c8 3d 94 54 91 bd
       -0.0176261 0.02924498 0.09767454 -0.0709621
000320 24 18 bb bb 40 ac a9 bd fe 2c 82 bd 61 8a cd bc
       -0.005709665 -0.08284807 -0.06356238 -0.025090398
000330 2e dd 38 3d e9 09 4c 3d d8 9b 4d bd eb 29 07 3c
       0.04513281 0.04981414 -0.050197452 0.00824974
000340 c1 8d 91 3d 8a 3c 21 3d 86 a1 6d 3d de e5 59 3d
       0.071071155 0.039364375 0.05801537 0.053197734
000350 3c 56 97 3d c4 de 61 bd 8f 10 c5 3d a3 40 45 bd
       0.07389495 -0.055144086 0.09622299 -0.048157346
000360 cd 9b 43 3d a0 12 c6 ba 3e 9a b0 3d 18 3d 2e bd
       0.047756005 -0.0015111752 0.08623169 -0.042538732
000370 43 01 24 3d 4f 37 e0 3d f8 c2 5e 3c 9d 71 a4 bd
       0.040040266 0.10948049 0.013596289 -0.080294825
000380 e4 f3 b1 3c 65 7c 4e bd 02 07 bd 3d 38 93 29 bd
       0.021722741 -0.0504116 0.09229852 -0.041400164
000390 5c 06 0b bd 42 47 24 3d 66 c3 03 3d a9 42 96 3c
       -0.03394161 0.04010702 0.03216877 0.018342333
0003a0 cd 95 c5 3d b1 19 32 bd 81 b4 f1 3c 14 4f 20 3d
       0.09647713 -0.043481532 0.029505016 0.039137915
0003b0 78 47 3a bd d4 7a ae 3d e6 7c d9 3a 3a 01 a3 3d
       -0.045478314 0.08519521 0.0016593009 0.07959218
0003c0 b3 70 97 3c ef 5b a5 3d 22 8c b3 3d 20 9e 78 3d
       0.018486356 0.080741756 0.087669626 0.060697675
0003d0 a7 7c 5b bd 90 c8 7c 3d 91 d3 07 bd 4f 77 aa 3d
       -0.053585675 0.06171471 -0.03316075 0.083235376
0003e0 23 92 b3 bd ac 4e d9 3d aa 8b 43 3a 06 18 ab 3d
       -0.08768108 0.106107086 0.0007459471 0.083541915
0003f0 23 88 8c 3c 23 cf 86 3d f1 ae 21 3d 59 3d 83 bd
       0.017154759 0.06582477 0.039473478 -0.064081855

shared.2.bias f4 [64]
000000 aa 38 42 bd 85 d0 67 bd 84 de 7b bd 75 5a b7 3d
       -0.04741732 -0.056595344 -0.061491504 0.089528
000010 94 88 c3 3d 48 4d d3 3d 96 92 87 3d d0 cd 4a bd
       0.095475346 0.103174746 0.06619756 -0.049512684
000020 a7 b4 26 3d 9c e0 0d 3d 34 5b af 3d cb 23 b3 3c
       0.040699627 0.034638032 0.085623175 0.021867653
000030 77 e1 5f 3d 5b cf 10 bd d8 68 85 3c 43 e9 d9 bc
       0.05465838 -0.035354 0.016285345 -0.026600486
000040 4e 43 b3 3d 3d 04 1c 3d 76 fc af 3d 62 42 7d 3d
       0.08753072 0.03808998 0.08593075 0.061830886
000050 db ce f7 3c e4 1f 8b 3c 00 61 17 3d 8d 59 3e bc
       0.030250004 0.01698298 0.03695774 -0.01161803
000060 3d e7 80 3c a5 ed a2 3c 12 df cb 3d d4 0f cd 3c
       0.015735263 0.019888708 0.09954657 0.025031962
000070 c0 e6 e9 bc e4 3e 30 bd a7 c4 a0 3d 6f 8d 52 bd
       -0.028552413 -0.043028727 0.078500085 -0.051404413
000080 e2 fe 7e bd c7 9c 36 3d 33 44 f6 3c 1a e6 4b 3d
       -0.062254794 0.04458311 0.030061817 0.04977999
000090 77 f2 18 bd 32 7e 22 bd a3 f8 e6 3d 62 d9 87 bd
       -0.037340607 -0.03967113 0.112778924 -0.06633259
0000a0 ae 80 0a 3c 88 3c 69 bd c0 0f 29 3d 4b a4 78 3d
       0.008453531 -0.056942493 0.041274786 0.060703557
0000b0 46 c3 5b 3c 4b 8b b8 3c 54 26 a5 bd 77 f4 0d 3d
       0.013413256 0.022527358 -0.08063951 0.034656968
0000c0 63 f0 51 3d d6 9e 1b 3d 72 4d ab bd fc 90 b1 3d
       0.05125464 0.037993275 -0.08364381 0.08670232
0000d0 66 32 f3 3c ff f4 42 bd 9e 13 a5 bd ef 50 bc 3c
       0.029687118 -0.047596928 -0.08060382 0.02298781
0000e0 2f e2 14 3d 0d 0d c5 3d 52 61 80 bd ac 20 de 3b
       0.036348518 0.0962163 -0.062685624 0.006778797
0000f0 f0 0e dd 3d 16 02 9e bc 05 ae ae 3d ba f8 f4 3b
       0.10793865 -0.019288104 0.08529285 0.0074759396

actor_head.weight f4 [1, 64]
000000 35 d0 da bc 00 db 98 bc 0b 6e d3 3d 58 61 97 bd
       -0.026710609 -0.018659115 0.103237234 -0.07391614
000010 2e 7e 1c 3c 08 21 01 bd 6e fb b6 bc 24 ef a0 bd
       0.009551568 -0.03152564 -0.022336688 -0.078581125
000020 01 c7 00 bd 91 df 73 3c ed e1 ba 3d fb 2c f3 bc
       -0.031439785 0.014884845 0.09125123 -0.029684534
000030 0d ee dc 3d b6 28 ca 3d 91 81 d1 bc 89 3d c9 bb
       0.10787592 0.09871046 -0.025574477 -0.0061413688
000040 98 f9 d7 3d e7 48 84 3d 0a 6f 86 bd e4 87 74 bd
       0.10545653 0.064592175 -0.06564148 -0.059699908
000050 34 56 fc 3d 08 f5 d7 bc cc 61 2f 3d 55 ec 93 bd
       0.123211294 -0.026361957 0.042817876 -0.07222811
000060 e0 7e fb bd 38 65 8f bc 4f 3d 24 bd c4 b1 69 3d
       -0.12280059 -0.01750432 -0.04009753 0.057054296
000070 00 1c d2 b9 d0 ae 80 bc f3 b4 c3 3d 82 03 b3 bd
       -0.00040075183 -0.015708357 0.09555998 -0.087409034
000080 b0 98 23 bc be e0 ae 3c e5 8c 5a 3d 5a 81 ac bd
       -0.009985134 0.0213474 0.053357024 -0.08423109
000090 ce 5c 4b 3d 9f 6a e2 3d c4 6e 28 3c 3c ab 3c bd
       0.049649052 0.110554926 0.010280315 -0.04606174
0000a0 68 66 68 3d fb c3 53 3d ce 9c d1 bd 00 81 3e 3b
       0.056738287 0.051700573 -0.10234986 0.002906859
0000b0 8c 20 f9 bd e2 f2 d0 3c ae dd 82 bd 6c a5 fb 3d
       -0.12164411 0.02550644 -0.06389938 0.12287411
0000c0 de 09 36 bd a5 89 c3 3b f0 d5 c6 bd e8 1e 8f bd
       -0.044443004 0.0059673362 -0.09708774 -0.06988317
0000d0 90 78 ad ba 3f da ee 3d 88 5f f4 bd 41 47 ab bd
       -0.0013234783 0.11662721 -0.11932284 -0.083632
0000e0 12 91 77 3d 9d 8b a5 bd 79 23 e0 bc 87 c3 68 3d
       0.060441084 -0.0808327 -0.027360665 0.056827094
0000f0 a6 0c 81 bd 56 92 b7 3d fe 34 f6 3d 03 27 26 3d
       -0.063012406 0.08963458 0.12021826 0.04056455

critic_head.0.weight f4 [128, 64]
000000 82 58 df bc 73 c3 f2 bd b8 76 df 3c d3 87 6f 3d
       -0.027263884 -0.11853685 0.02727829 0.05847914
000010 2e 12 d1 3d 2c 5b f4 bc d8 a6 ad 3d d0 04 76 bd
       0.102085456 -0.02982863 0.084790885 -0.060063183
000020 0a 74 8b 3d d9 f1 e5 bd 66 6a fb 3c b2 90 1d 3d
       0.06809242 -0.112277694 0.030690383 0.03846807
000030 7e 35 2b bd 7a 36 fa 3d 20 3d 3a bc 43 31 7b 3d
       -0.04179906 0.12217422 -0.011367112 0.061326277
000040 13 1f 8f bd a4 cf 83 bd c0 05 e1 bd 00 98 5e 3d
       -0.06988349 -0.06436089 -0.10987425 0.054344177
000050 ff 4b e4 3d 17 6e 9f bd 1f 9e 71 3d 6b 0c a3 bd
       0.111473076 -0.0778467 0.058988687 -0.07961353
000060 38 96 fb bd 72 82 a5 bd 1d 82 cb bd d0 1b c4 bc
       -0.12284511 -0.08081521 -0.099369265 -0.023939043
000070 9c be 07 bd 64 a1 da 3d 63 24 ba bd 59 a3 35 3d
       -0.033140764 0.10675314 -0.090889715 0.044345234
000080 f6 71 d5 bd cd 48 83 3c 0a 92 d9 3c ab 79 54 bd
       -0.10422127 0.016025925 0.026558895 -0.051873844
000090 1e 51 32 3d b7 c9 4b 3c a4 84 e0 bd b0 14 14 bc
       0.04353439 0.012438229 -0.10962799 -0.009038135
0000a0 d5 e0 00 bd b7 2e 5f bd ef 44 24 bd c0 eb 00 bc
       -0.031464417 -0.05448791 -0.040104803 -0.007868707
0000b0 6f 1f 71 3d 57 8c a0 bd 00 83 5d 3b 3e bb a5 3d
       0.058867868 -0.07839268 0.0033800006 0.08092354
0000c0 03 40 e7 3d 75 8c b3 3d 28 63 d7 3d 1c dc fd 3c
       0.11291506 0.087670244 0.105169594 0.030988745
0000d0 85 fd f8 bc 16 cd 1d 3d 78 26 a4 bd 80 66 a1 3d
       -0.030394325 0.038525663 -0.0801515 0.078808784
0000e0 b8 ed f6 bc 78 69 81 3d 1c 92 9f bd 2d be b4 3d
       -0.03014265 0.06318945 -0.0779154 0.08825336
0000f0 31 f3 90 bd 34 e6 8d bd b3 4b 9b bd b5 62 b9 bc
       -0.07077635 -0.069286734 -0.07582798 -0.022630075
000100 a3 95 d0 bd 4c 4d ae bd ad e2 5b 3d b0 0d bd bd
       -0.10184791 -0.08510837 0.05368297 -0.09231126
000110 bf 2b c6 3d a9 89 6e 3c 18 8b e6 3d 0c 03 74 bd
       0.09676313 0.014559188 0.11256999 -0.05957322
000120 ed f9 b6 3d c2 30 8b 3d 18 f5 da bd a6 40 4f bd
       0.08934388 0.06796409 -0.10691279 -0.050598763
000130 6a 8e cf 3d aa e9 e8 bd a4 92 bd bd 42 14 f3 bd
       0.10134585 -0.11372693 -0.09256485 -0.11869098
000140 1f a8 17 bc d9 8c 5b bb ae 41 e3 bd 46 2d a2 bb
       -0.009256392 -0.00335007 -0.11096512 -0.0049492447
000150 5f 5e be bc 39 47 b0 3c cf b2 bd 3d 3b 16 fb 3d
       -0.023238359 0.021518337 0.09262621 0.122600995
000160 40 30 3b bd e2 79 a6 bd e5 e5 cc 3d 30 70 da 3d
       -0.04570031 -0.08128716 0.100047864 0.10665929
000170 be c3 d5 3d c8 51 69 bd 9c 03 b0 3d d5 e7 9b ba
       0.104377255 -0.05696276 0.085944384 -0.0011894653
000180 cc 18 05 3d b3 8e d9 3c 61 45 88 3c 14 79 d5 bd
       0.03249435 0.026557302 0.016634645 -0.104234844
000190 9c 7f 31 bd 41 e4 13 bd ef 3f 48 3b 88 53 b6 bd
       -0.04333459 -0.03610635 0.0030555686 -0.08902651
0001a0 9e d4 7a 3d f8 12 89 bd 94 ac b3 3b 48 b7 bb 3c
       0.061237924 -0.06693071 0.0054832194 0.022914544
0001b0 f6 c2 0d 3e 59 ae e0 bd c8 34 c3 3d 08 2e 19 bc
       0.13843903 -0.10970754 0.095315516 -0.009349354
0001c0 4d 5e f8 3d d4 78 f4 3d 3c 23 c2 bd 3e e8 d8 bd
       0.121273614 0.11937109 -0.09479377 -0.10591172
0001d0 64 99 d6 3d 03 c3 d8 3d d2 40 ad bd a1 cb 0d 3c
       0.10478476 0.105840705 -0.08459629 0.008654506
0001e0 5d 95 f0 3c f6 ce 3f 3d a5 e1 c9 bd 91 33 7f bd
       0.029368097 0.046828233 -0.098574914 -0.062305037
0001f0 0a a9 59 3d fc 7b 35 3d 17 67 06 3e 67 fe ce 3d
       0.053139724 0.044307694 0.13125263 0.10107117
000200 d1 8c 4e 3d 53 dc 89 bd 1c 6a b3 bd 3b cb 7f 3d
       0.05042726 -0.06731477 -0.08760473 0.062449675
000210 c7 e7 1c 3d df ba b3 bd 28 5c df 3c 0e 5b 95 bd
       0.038306978 -0.08775877 0.027265623 -0.07292758
000220 a8 4c 7a bd 8d 9c 20 3c c0 ec bd 3c ac 76 f2 3d
       -0.06110826 0.00980295 0.02318418 0.11839041
000230 97 aa 06 3e 36 54 9e bd 1c 5f 8f 3d aa 4b 8c 3d
       0.13151012 -0.07730906 0.070005625 0.06850369
000240 ca f0 15 3e 14 f9 a9 3d 1c b2 08 bd 55 13 9c bc
       0.14642635 0.08299461 -0.033372983 -0.019052187
000250 98 a4 87 3c 1f f1 dd 3d 97 59 0c 3e f5 8f 32 bc
       0.016557977 0.10837006 0.13706051 -0.01089858
000260 70 a5 52 3c 40 27 c1 3d 93 c7 99 3d ec 39 c0 bd
       0.012856826 0.094313145 0.07508769 -0.09386048
000270 58 48 84 3d ac 35 d1 bd e4 e6 94 bd c3 1d 7b bd
       0.06459111 -0.10215315 -0.072706014 -0.06130768
000280 18 24 3e bd 84 72 32 3d 09 8b 8c bc 0a 3e 13 3e
       -0.04642114 0.04356624 -0.01715614 0.14379135
000290 a8 f1 30 3d 48 8b d4 bd 4b 36 89 bd dc 5c dd 3d
       0.04319921 -0.10378128 -0.06699809 0.10808727
0002a0 f1 9f b8 bd 07 e7 c8 3d 71 41 ab 3d 54 d1 35 3d
       -0.090148814 0.0980969 0.08362091 0.044389084
0002b0 43 77 7e 3d dd af a5 bb c0 30 9e 3b 88 c3 5e 3d
       0.062125456 -0.005056365 0.004827589 0.054385692
0002c0 cf de d6 bd 90 1d c3 bc b0 8a fa bc 10 6d 7c 3d
       -0.10491716 -0.023817807 -0.03058371 0.061627448
0002d0 a5 73 81 3d e6 79 99 bb 3e de a6 bd 29 96 b3 3c
       0.063208856 -0.004683721 -0.08147858 0.021922188
0002e0 46 d2 9b bd 81 40 c4 bd 84 d9 90 3c d4 f7 3c bd
       -0.07608466 -0.09582616 0.017681845 -0.046134785
0002f0 d6 17 34 3d a0 97 d8 bc e8 7c 21 3d da c9 5e bd
       0.043968044 -0.026439488 0.03942576 -0.05439172
000300 67 01 02 bd 50 fb b2 bc 6f 05 5d 3d 40 9f 30 bd
       -0.03173962 -0.02184835 0.05396026 -0.043120623
000310 5e b3 c8 3d 95 2d 77 3d 6a 20 ac bd 4c 34 62 bd
       0.097998366 0.060346205 -0.0840462 -0.055225655
000320 1d 11 2b bc e4 32 25 3c cb be b6 bd fb 3c b9 3d
       -0.010441092 0.010082934 -0.089231096 0.09044834
000330 5f e5 0b 3e a0 d6 07 bc f4 84 0e bd 0c ce d2 3d
       0.13661717 -0.008290917 -0.034794763 0.102932066
000340 f2 bb e0 bd 0f 0f e5 bd 20 d3 e7 3b fa b2 c7 ba
       -0.10973348 -0.11184513 0.0070747286 -0.0015235834
000350 c2 53 ad 39 c9 72 ab bd 24 7a 73 3d af a9 8e bd
       0.00033059536 -0.08371503 0.059442654 -0.06965958
000360 00 4f d4 3a 20 b0 6e bc 60 2a d9 3d 14 c2 11 bd
       0.001619786 -0.014568359 0.106037855 -0.035585478
000370 e0 3e 0f bc 94 82 25 bd fe 4f 3f 3d 86 5a c6 bb
       -0.008743018 -0.040407732 0.046707146 -0.0060532717
000380 46 52 bb 3d d5 22 4d 3d a4 59 b1 bc 75 08 a8 3d
       0.09146552 0.050082047 -0.02164919 0.08204738
000390 90 21 a6 3d 8c 1d e8 bc 68 74 e5 bd d0 03 20 bd
       0.0811187 -0.028334402 -0.11203843 -0.039066136
0003a0 1d 89 73 3d 36 03 be 3d e9 5a c4 bd 28 eb 39 3d
       0.059456933 0.09277956 -0.09587652 0.045390278
0003b0 8a 76 0a bd c3 a4 70 3d d4 c3 8d 3d 5a 5e 09 3e
       -0.033804454 0.05875088 0.06922117 0.13414899
0003c0 7d 3f cb 3d 6f ac 88 3d 5a 7c ff bd 28 c8 c4 bd
       0.09924219 0.06673514 -0.1247489 -0.09608489
0003d0 51 3c ed 3d 68 5f be 3d fc f3 10 bd d4 82 34 3d
       0.1158377 0.09295541 -0.03538893 0.04407008
0003e0 a7 c8 52 3d ce 9b c7 bd a1 a9 94 3d 91 ea a5 bd
       0.05146089 -0.09746514 0.07258917 -0.081013806
0003f0 29 b7 08 bd 80 41 d4 bd 64 ca 03 bd d6 d9 45 bc
       -0.0333778 -0.10364056 -0.032175437 -0.012075862

critic_head.0.bias f4 [128]
000000 35 4b f0 3d 18 b7 fa 3d f3 0e 40 bc a1 74 c8 3d
       0.117330946 0.122419536 -0.011722314 0.0978787
000010 f2 ca d2 bd a0 e8 e5 bc 4d 07 17 bd 52 e2 69 3d
       -0.10292615 -0.028065026 -0.036872197 0.0571006
000020 a5 79 28 3d 40 2e 89 3d 5e 18 95 3d c4 c6 b5 3d
       0.041131634 0.066982746 0.07280038 0.08875802
000030 4f 67 95 3b de 41 b6 bd 39 9c b2 bd eb f0 83 bd
       0.0045594345 -0.08899282 -0.08721203 -0.06442436
000040 d8 83 21 bd 7b a9 30 bd 24 f2 8f bd d2 62 64 3d
       -0.039432377 -0.04313038 -0.070286065 0.055758305
000050 68 74 e9 bd c2 cb d2 3b 02 53 06 3e 1c ce bb bd
       -0.11399156 0.006432981 0.13117602 -0.091701716
000060 d9 69 88 3d 56 d6 e5 3d 8f 96 1d bd 68 c7 93 bd
       0.06660814 0.11222522 -0.038473662 -0.07215768
000070 a2 b3 0b 3d 6e 32 05 be 7e d3 e8 3d 77 d9 c5 3d
       0.034106858 -0.13007519 0.11368464 0.09660619
000080 a3 c7 81 3d 14 d8 4b bd 6c 0b 3e bd 5e 1e e2 bd
       0.06336906 -0.049766615 -0.04639761 -0.11040948
000090 9d e3 c9 3d 2c 8c 8d bd 4c b2 88 3d b6 9f 9a 3d
       0.09857867 -0.06911501 0.066746324 0.07549994
0000a0 ff 75 0b 3e 04 5d f5 bd ee 74 04 3e 77 03 52 3d
       0.1361923 -0.11980632 0.1293523 0.051272836
0000b0 63 06 d2 bc ca 51 cb bd a9 39 4d 3d 01 21 94 bd
       -0.025637811 -0.099277094 0.050103817 -0.072328575
0000c0 30 05 93 bd 9c f7 fb bc 0c c0 6e 3b ed 8b 84 bc
       -0.07178724 -0.030757718 0.0036430387 -0.016180003
0000d0 d0 ea 84 3d ad 8a ec 3d 6b a2 f8 3d fa 4f b7 bd
       0.064900994 0.11549888 0.12140354 -0.08950801
0000e0 10 51 5e 3d 74 94 cb 3d 87 48 28 3d ee c3 c7 3d
       0.054276526 0.099404246 0.041084792 0.097541675
0000f0 1d dd d4 3d 2f 7e f7 3d 00 da 4b 3c 3e d8 bd bd
       0.103937365 0.120846145 0.012442112 -0.092697605
000100 71 6f b1 bc 59 a0 72 3c 54 a1 04 3e e0 76 bb bd
       -0.021659585 0.014808738 0.12952167 -0.09153533
000110 3c 34 cc 3d 1e a2 82 3c e5 3a 8d 3c 8d 6e dc 3c
       0.099709004 0.015946444 0.017239997 0.026908183
000120 9c 4c d6 3c 7b b5 07 3e 40 35 94 bc 0c a8 e1 bd
       0.026159577 0.13252823 -0.018091798 -0.110183805
000130 47 bc 04 3e 3d d8 ac bc 78 f7 06 bd 40 7b 7c 3d
       0.12962447 -0.021099204 -0.03295085 0.061640978
000140 ee a4 93 bc 0a 88 d9 bd 7d b2 29 bd 95 11 da 3c
       -0.01802298 -0.106216505 -0.041429985 0.026619712
000150 d4 91 b4 3d 2d 67 89 3d 80 43 f9 bc 77 df 9a 3d
       0.08816877 0.06709132 -0.030427694 0.07562154
000160 9e 43 8a 3c bc 60 5f bd 5d a1 8e 3d 03 f0 3b 3d
       0.016877946 -0.054535612 0.06964371 0.04588319
000170 ad 7b 3a 3d 97 d5 ba bd 9f ce e6 3d 5b df a7 3d
       0.045528103 -0.0912277 0.112698786 0.081968985
000180 e0 df bb bb db ac e1 3d 14 aa 57 bd 58 66 40 bb
       -0.005733475 0.11019298 -0.052652434 -0.0029357877
000190 ac c2 48 bd c0 16 36 3b b5 54 02 be 77 55 64 39
       -0.04901378 0.0027784556 -0.12727626 0.00021775613
0001a0 98 b8 97 bc ca cd 05 3e 60 4a bd 3b e4 46 b3 3d
       -0.018520638 0.13066784 0.0057766885 0.08753756
0001b0 db 9c 0c 3e e0 6c 5f 3d 96 5f 10 3d 38 13 de 3c
       0.1373171 0.05454719 0.035247408 0.027108774
0001c0 20 ac ca 3c 60 af 6a bc 41 d8 0e 3e aa a8 4b bc
       0.024740279 -0.014324039 0.13949682 -0.012430349
0001d0 90 76 47 3b d5 1f 72 bd 7c c0 71 3d 7d 24 fd bb
       0.003043566 -0.05911239 0.059021458 -0.007725297
0001e0 6a f4 8f 3d d1 24 8f 3d 34 0e 9c bd 66 2a a0 bd
       0.0702904 0.06989444 -0.076198965 -0.07820587
0001f0 d2 40 e2 3d a3 8c 94 bd 58 a7 91 bd 21 cc 2b 3d
       0.1104752 -0.07253387 -0.071119964 0.04194272

critic_head.2.weight f4 [64, 128]
000000 d0 44 fd 3c d6 f5 b6 bc 37 77 03 bb 58 27 4a bc
       0.030916601 -0.02233402 -0.0020060071 -0.012338482
000010 df 36 1f bd c7 56 9b bc e9 3b 71 bd f3 0e 97 3c
       -0.03887069 -0.018962277 -0.058895025 0.018439746
000020 4a 04 29 bd 98 73 a7 bc ea 2a 5f 3d 61 0e 4e 3d
       -0.041263856 -0.020440862 0.054484285 0.05030668
000030 d9 c2 af bd d8 35 17 3d c0 a1 5b bd ee c0 84 bd
       -0.08582086 0.036916584 -0.053621054 -0.06482111
000040 79 85 95 3d 14 85 86 3d f4 89 93 bd 2f 65 99 bd
       0.073008485 0.065683514 -0.07204047 -0.07490002
000050 b6 e9 7a bd df d2 08 3d ac b2 ae 3b 6c b2 09 3d
       -0.06125804 0.033404227 0.005331358 0.033617422
000060 c9 98 09 3d 54 d7 88 bd d6 f9 86 bd c0 34 21 3d
       0.033592973 -0.066816956 -0.06590621 0.039356947
000070 ae 73 a2 3d 2f 4e 85 bb 1b a8 fd bc ba e8 8f bc
       0.079322204 -0.004068158 -0.030963948 -0.017567027
000080 da ee 22 3d e0 bc 33 bd 60 9f 46 3d fb e9 88 3d
       0.039778568 -0.043881297 0.048491836 0.06685253
000090 a6 f6 a9 bd 2e 38 6a bb c3 a6 41 bd a2 70 20 3d
       -0.082989976 -0.0035739052 -0.047278177 0.039169915
0000a0 83 0d 86 bd bf c5 b1 3d 85 78 47 3d 19 4b 97 3d
       -0.06545546 0.08680295 0.04869892 0.073873706
0000b0 2a ae f1 bc f5 40 3d 3d 1d cc 49 bb 2e a9 b0 3c
       -0.029501993 0.046204526 -0.0030791827 0.021565046
0000c0 64 ea 81 bc 27 4b fb bb 44 7d 90 bd d9 fa 28 bc
       -0.015858836 -0.007668871 -0.070551425 -0.010313713
0000d0 66 4e bf bc 87 45 08 3d 6a d7 47 bd 09 5a 9f 3d
       -0.023352813 0.03326943 -0.04878942 0.07780845
0000e0 68 fd 25 3d 01 1c 37 3d e3 8d 38 bd 50 f6 55 bc
       0.04052487 0.04470444 -0.04505719 -0.013059214
0000f0 c7 6f 8f bc 04 0d 21 3d d5 37 ed bc a2 33 13 3d
       -0.017509354 0.039319053 -0.028957287 0.035937913
000100 f4 9c 49 3d b7 4e 62 3d ea ed ae bd 3e b5 94 3d
       0.049221948 0.05525085 -0.08541472 0.07261132
000110 4e cd 2d bd 92 ea 3b 3d c4 b3 3f 3d 69 69 38 bb
       -0.042432122 0.045878 0.046802297 -0.0028139001
000120 ee 28 89 3c 26 67 90 bd c0 74 8a bd 74 fb 5d 3d
       0.01674315 -0.07050924 -0.067605495 0.054194883
000130 2e 2d 34 3d 55 cd 16 bd 13 c4 93 3c 5f f8 e7 bb
       0.0439884 -0.036816914 0.018037831 -0.0070791687
000140 d4 ad 5a 3d e0 1f a8 3d 6d 1a 27 3c ac b2 9f bd
       0.05338843 0.08209205 0.0101991715 -0.07797751
000150 17 1f 35 3d 6c 9c 98 bd bf 37 a1 bd e0 e4 5b 3d
       0.044219103 -0.0745171 -0.07871961 0.05368507
000160 1f e3 63 bd 67 03 13 bd 7d e9 a3 3d b4 b9 95 bb
       -0.05563652 -0.035891917 0.08003519 -0.0045692567
000170 00 6a 4d 3d 07 ee 9a bd 1a 7a a4 bc e9 b0 83 3c
       0.050149918 -0.07564931 -0.020077754 0.016075568
000180 71 69 b1 3d 91 03 78 bd 24 61 9d bd 60 50 d1 3c
       0.086626895 -0.060550276 -0.07684544 0.025551021
000190 fe d8 4c 3d e6 f2 cd bc fd 7f 8d bd c8 a4 97 3b
       0.050011627 -0.025140237 -0.069091775 0.0046277978
0001a0 2a 6b 56 3d 3c b6 44 bd 47 33 aa 3c e3 2e 82 bd
       0.052348293 -0.048025355 0.020776404 -0.06356599
0001b0 ee 49 c6 bc 84 72 3d bd bd 90 6f 3d 00 be 37 ba
       -0.024205174 -0.04625179 0.058487643 -0.0007009208
0001c0 a4 9b b7 3c 9b 68 c2 bc 44 1c 53 bd 45 7d 8c 3c
       0.022413082 -0.02373152 -0.051540628 0.017149577
0001d0 94 7b 92 bd 08 38 59 3b e2 5f b2 3d 31 68 5a 3d
       -0.07152477 0.003314497 0.087096944 0.05332202
0001e0 12 62 1b 3d 72 bf 89 bd 0a fd 75 3d f4 da 18 3d
       0.037935324 -0.067259684 0.06005577 0.037318185
0001f0 3a b9 0c 3d b9 5d 86 bd aa 37 3b bd ef 53 5a bd
       0.034356333 -0.06560845 -0.045707382 -0.0533027
000200 f6 62 90 bc 4b ea 63 3b c9 3f bb 3c e7 c7 2c 3c
       -0.017625313 0.00347771 0.022857564 0.010545707
000210 00 17 9e bd ad ad 15 3d 7e df 91 bd ad b0 b0 3d
       -0.07719231 0.036542583 -0.07122706 0.08627448
000220 49 7e a7 3c 1a 1d 95 3d 85 87 0c 3d de 93 11 3c
       0.02044596 0.07280941 0.03430893 0.008885352
000230 de ae 87 bd 76 18 28 3c 74 d6 bb bd 60 20 66 bd
       -0.0662515 0.010259738 -0.09171763 -0.05618322
000240 25 9e 10 bd 20 63 ca 3c 71 87 05 bc 4d 16 5b 3c
       -0.03530707 0.02470547 -0.0081499675 0.013372016
000250 b3 ad a8 bd b8 8f 2a bc b7 77 bd bb f4 70 88 3a
       -0.082362555 -0.010410242 -0.0057820934 0.0010409639
000260 87 c7 c6 3a 7e 08 d2 3b 0a 98 ad 3c 89 5d 9e 3d
       0.0015165665 0.0064097038 0.021190662 0.07732684
000270 f6 14 0e bd d3 6d bc 3c ed d9 3e bd 77 2a 32 3b
       -0.03468796 0.023001587 -0.04659455 0.0027185956
000280 7b 6a 8d 3d 7c 60 57 3d 1b 7d 7a 3d be 18 a5 bd
       0.06905075 0.05258225 0.061154466 -0.0806136
000290 70 39 af bc 59 c2 2a 3d 38 7e 40 bd e5 c0 51 bd
       -0.021389693 0.04168925 -0.04699537 -0.05120935
0002a0 37 dd 72 3d 4f 89 55 3d 80 62 43 bd 01 2d 7c 3d
       0.059293 0.0521329 -0.04770136 0.061566357
0002b0 65 54 7f bd b0 2a f2 bc f3 31 c4 3d d2 54 85 bd
       -0.062336344 -0.02956137 0.095798396 -0.06510319
0002c0 54 8f 68 bd 8e 38 66 3d 74 96 9c bc 45 13 8b 3d
       -0.056777313 0.05620628 -0.01911471 0.06790785
0002d0 35 38 86 3d 84 00 a6 bd ba 9a db 3d 70 4e 83 bd
       0.065536894 -0.08105567 0.10722871 -0.06411445
0002e0 70 92 72 bd 65 e1 59 bd a5 c9 ae 3d 78 d3 7c bd
       -0.059221685 -0.05319347 0.085345544 -0.06172511
0002f0 32 5b 53 3d 13 9c 62 3d b7 f8 81 bd 91 7f 37 bd
       0.051600643 0.055324625 -0.06346267 -0.04479939
000300 65 ea 99 bd a3 16 5c bd 8e e8 18 3c bb 16 09 3d
       -0.0751541 -0.053732526 0.009332789 0.033468943
000310 76 5f 9e bd 0b dc 3f bd 84 b6 bf 3d 2d d1 b1 bd
       -0.077330515 -0.04684071 0.09360984 -0.08682475
000320 53 1f ad 3d e4 2b ab 3d d5 fe ab 3d 6b 92 97 3c
       0.0845324 0.08357981 0.08398215 0.018502435
000330 7e d3 64 3d e2 e8 b4 bc 8b 2b 15 bd 38 bc 6b bd
       0.055865757 -0.022083703 -0.03641848 -0.057552546
000340 d4 f0 0d bd ae ff 67 3c e4 5e fa bc a2 50 a1 3d
       -0.0346535 0.01416008 -0.030562826 0.078767076
000350 74 11 12 3d b6 19 ee 3c 8d 18 a1 bd 20 fd 1f 3c
       0.035661176 0.029064994 -0.07866011 0.00976494
000360 a5 7b 0e bd 56 8c 31 bd 83 6d 17 bd ec 38 5e 3d
       -0.034785885 -0.043346725 -0.036969673 0.054253504
000370 b8 b9 9d 3d d9 32 35 3d 5f c0 58 3d 21 7d 10 3d
       0.07701439 0.044237945 0.052917834 0.035275582
000380 fd a3 8c bd 7c 4a 7e 3d 92 73 ae 3c 5f e6 62 bd
       -0.06867216 0.062082753 0.021295343 -0.05539548
000390 95 90 e3 3c f9 39 17 bd 66 c9 86 3d a5 61 ef bb
       0.027778903 -0.03692052 0.065813825 -0.0073053413
0003a0 e1 e3 3b bc 03 0c 53 bd 7a 7a c7 bc 3d 47 11 bd
       -0.011467905 -0.051525127 -0.024350394 -0.03546833
0003b0 3c 7b 56 bc 06 67 0c bd 5e f9 0f 3d 37 aa d7 3b
       -0.013090905 -0.03427794 0.035149924 0.0065815705
0003c0 97 73 50 3d 83 59 8f bd e9 aa 3f bd 3c a6 5f bd
       0.050891485 -0.06999495 -0.046793852 -0.054601893
0003d0 c0 3b 83 3d 47 1c 06 bc 67 28 7f bb 8d 36 4d bd
       0.06407881 -0.008185453 -0.0038933994 -0.05010085
0003e0 d5 89 a1 3d 3c 6f df 3c 0f a1 9d bc 14 2e 4d bd
       0.078876175 0.02727472 -0.019241838 -0.05009277
0003f0 30 19 2b bc dc 83 84 3d 6c 5b 7d bd 75 44 30 bd
       -0.010443017 0.06470463 -0.061854765 -0.043034036

critic_head.2.bias f4 [64]
000000 0e 54 81 3d 7f b2 b5 3d 23 dc 2d 3a 36 4e 4e 3d
       0.0631486 0.08871936 0.0006632229 0.050367557
000010 13 02 d7 bc 27 a2 86 bd c8 86 1e bd f9 72 69 bd
       -0.026246106 -0.06573897 -0.038702756 -0.056994412
000020 97 9e a3 3c 4d 20 ab 3d 0c 41 8b 3d ec 9b 23 3d
       0.019973082 0.0835577 0.06799516 0.03994362
000030 f2 f9 a8 3d fd 5f 42 bd fd 07 46 bd 8d f7 4a 3d
       0.08250798 -0.047454823 -0.048347462 0.04955249
000040 4d 08 b2 bc 74 e3 9b bd 89 a6 33 bd ac 47 ce 3b
       -0.021732474 -0.076117426 -0.043859992 0.006295165
000050 de 78 04 3c 9f 69 9a 3c d6 60 65 3d c5 78 40 3d
       0.008085458 0.018849192 0.056000553 0.046990175
000060 79 0f 2e 3d f3 81 3a bd a8 92 a8 bd 67 bf 00 3d
       0.042495225 -0.045534085 -0.082310975 0.031432535
000070 19 d3 8a bb 39 41 05 bc 2f 1c 8f bd 8b e9 98 bc
       -0.0042365906 -0.008133226 -0.069877975 -0.01866605
000080 38 2c 9a 3d 91 c0 35 bd 42 81 f1 bb 7d c4 22 3d
       0.07527965 -0.0443731 -0.007370145 0.039738167
000090 b2 38 0c 3c 95 a7 42 bc 89 e5 f6 3c 9c c1 3c 3d
       0.008558439 -0.011880775 0.030138748 0.046083078
0000a0 30 16 6f 3d b0 00 af 3d a7 98 81 bc dd 76 71 3d
       0.05837077 0.08545053 -0.01581986 0.058951247
0000b0 a4 47 cb bb d3 1f 98 bd 98 30 2e 3d 65 2b 86 bc
       -0.0062036086 -0.07427945 0.04252681 -0.016378114
0000c0 64 9d c4 3d 68 9c 06 3c 2d 08 0a bc 0e 88 be 3d
       0.096003324 0.008216001 -0.008424801 0.09303294
0000d0 ea 27 a8 3d 94 84 64 bd 1e 0e 0d 3d ee 67 dd 3c
       0.08210738 -0.0557905 0.03443729 0.027027097
0000e0 95 04 85 bc 31 6e a0 bd 1d fb eb bc af a0 82 3d
       -0.016237536 -0.07833517 -0.028806264 0.06378304
0000f0 15 10 b2 3d 2f 7f 03 bd 93 62 93 3d 51 36 97 3d
       0.08694474 -0.032103714 0.07196536 0.07383407

critic_head.4.weight f4 [1, 64]
000000 6a c7 37 3d d1 73 bc bc 7d 14 68 bd 23 ef e0 bd
       0.04486791 -0.023004444 -0.056660164 -0.10983112
000010 7e 4c ec 3d 9e 84 b3 bd 22 43 cc bd c0 70 02 3c
       0.11538027 -0.08765529 -0.09973742 0.007961452
000020 2f dc 05 3c 5f 1c cb bd e6 3c 61 3d 32 5d b7 3d
       0.008170172 -0.09917521 0.054989718 0.089533225
000030 25 36 13 be 8e 6f e2 3d ec ac 41 bc 95 10 ed 3c
       -0.14376123 0.110564336 -0.011821013 0.028938571
000040 34 1a a4 bd e5 d7 8a 3d 4d 33 15 be a0 3f 97 bd
       -0.0801281 0.0677946 -0.14570351 -0.073851824
000050 d8 e6 0e be 01 d5 38 bd 51 b8 43 3d 64 00 e0 bd
       -0.13955247 -0.04512501 0.0477832 -0.109375745
000060 10 16 96 3d 78 04 f1 3d 54 4a a0 bd 9e 68 f0 3d
       0.07328427 0.117684305 -0.07826677 0.11738704
000070 e0 52 e3 bd 28 b1 e5 3d ae 4a 07 3d 30 13 b9 3c
       -0.110997915 0.112154305 0.033030204 0.022592157
000080 b3 07 e4 bd 00 1e 2c ba d3 72 86 bd fe 5f c7 bd
       -0.11134281 -0.00065657496 -0.0656487 -0.09735106
000090 42 cc 0b be 40 16 d0 bd 75 82 53 3d 42 07 e7 bd
       -0.13652137 -0.10160494 0.051638085 -0.11280681
0000a0 50 c9 79 3d f8 c0 14 be 26 56 dd bd 98 91 86 3d
       0.060983002 -0.14526737 -0.10807447 0.065707386
0000b0 4c df eb bd 64 71 20 bd aa e5 9b 3d 3c 43 28 bd
       -0.115172 -0.039170638 0.07612164 -0.041079745
0000c0 36 e9 f2 bd b0 75 34 3d 28 1b 59 3d ae cc db bc
       -0.11860888 0.044057548 0.053004414 -0.026830997
0000d0 b7 fd 44 3d 36 05 d7 3d a4 87 13 be 37 7e be 3d
       0.048093524 0.10499041 -0.14407212 0.09301417
0000e0 44 50 bb bd 78 3d 1b 3d ae 6c e2 3d 39 fb 6c 3d
       -0.09146169 0.037900418 0.11055885 0.057856772
0000f0 77 30 7c bd 8d 21 90 3c 1b c1 ab 3d 26 b3 a4 3c
       -0.061569657 0.017594123 0.08386441 0.020104956
