Training results of three types of reinforcement learning/site_user_differentiation_model/best_agent.pth (torch, 107068 bytes, 10 tensors)

shared.0.weight f4 [128, 4]
0	0xbee74965	-0.45173183
1	0x3e9d103c	0.30676448
2	0xbd1c3fe4	-0.03814687
3	0x3e8fbc70	0.28073454
4	0xbe917b72	-0.28414494
5	0x3e5869fe	0.21134183
6	0xbebd495a	-0.36970025
7	0xbee9099e	-0.4551515
8	0xbcb09a12	-0.021557841
9	0xbe270ab5	-0.16312678
10	0xbe0b0471	-0.13575913
11	0x3effe75d	0.49981204
12	0xbe957ea1	-0.29198173
13	0x3e9f4038	0.31103683
14	0x3ede1a03	0.4337922
15	0x3ed683b5	0.4189736
16	0x3e26a15e	0.16272494
17	0x3e530cb9	0.20610322
18	0x3ec5f78f	0.38665435
19	0x3c0dc6c5	0.008653347
20	0xbe572e58	-0.21013772
21	0xbe6823d0	-0.22669911
22	0xbea2b9bc	-0.3178233
23	0xbb750500	-0.0037387013
24	0x3e1f453c	0.15553755
25	0x3d4e4130	0.050355136
26	0xbefbcab2	-0.49178082
27	0xbe5a9a38	-0.21347892
28	0x3cb44fc9	0.0220107
29	0x3ed94677	0.42436573
30	0x3e0f6fcd	0.14007492
31	0xbe165d3d	-0.14684005
32	0xbe9e199d	-0.30878916
33	0x3e10d095	0.14142068
34	0x3e8a9a60	0.27070904
35	0x3c33f114	0.0109827705
36	0x3ecbfd7f	0.3984184
37	0x3ece7abe	0.4032802
38	0xbdef5d7d	-0.11687753
39	0xbe8d94b4	-0.27652514
40	0xbea84ed7	-0.3287265
41	0xbe945102	-0.28968054
42	0x3def7e8e	0.1169406
43	0xbe8acdeb	-0.27110228
44	0xbe36903c	-0.17828459
45	0xbeb52978	-0.353832
46	0xbdd299b0	-0.1028322
47	0x3d91df98	0.07122725
48	0xbecd9ab3	-0.4015709
49	0x3ed8e08d	0.4235882
50	0xbe8a4685	-0.27006927
51	0xbe95fc19	-0.29293898
52	0xbe8896dd	-0.266776
53	0x3d031bdc	0.03200899
54	0xbee19d26	-0.44065207
55	0x3e95aca4	0.29233277
56	0xba73b98a	-0.0009297362
57	0xbe671d8a	-0.22569862
58	0x3eb29427	0.34878656
59	0xbe22a63f	-0.1588373
60	0x3d1c8415	0.0382119
61	0xbcdf2718	-0.027240321
62	0x3ee57827	0.4481823
63	0x3ef9bac6	0.4877531
64	0xbe85c98a	-0.26130325
65	0x3e2f1f70	0.17101836
66	0x3e72b3b8	0.2370137
67	0xbe82a33e	-0.2551517
68	0xbec73030	-0.38903952
69	0x3c9f3740	0.019435525
70	0x3ec74672	0.38920933
71	0x3e96c6c8	0.29448533
72	0x3eeb62b5	0.45973745
73	0xbda109c4	-0.07863191
74	0xbefc6fff	-0.49304196
75	0x3e996d23	0.29966077
76	0x3e152f3a	0.14568797
77	0x3ebb701e	0.36608976
78	0x3efa690f	0.48908278
79	0xbe08bbe6	-0.13352928
80	0x3ee00077	0.43750355
81	0x3edcdf93	0.43139324
82	0x3eec82ee	0.4619364
83	0xbd8fdf6a	-0.07025035
84	0xbecdd1ba	-0.4019907
85	0xbe7534be	-0.23945901
86	0x3ed345a0	0.41264057
87	0x3ee409e0	0.44538784
88	0xbe7a2fbd	-0.24432273
89	0x3ed891d2	0.42298752
90	0xbda96361	-0.08270908
91	0x3edbe90d	0.4295124
92	0xbe9b345b	-0.30313382
93	0xbefcce28	-0.49376035
94	0x3e74ea29	0.2391745
95	0xbed78e17	-0.42100593
96	0xbdd5b59d	-0.104350306
97	0xbe4d0943	-0.20023064
98	0x3e0e1edc	0.1387896
99	0x3efad974	0.4899403
100	0xbec9793b	-0.39350304
101	0x3e8530b0	0.26013708
102	0x3ecd5b24	0.40108597
103	0x3e9a0816	0.30084294
104	0xbddce69a	-0.10786171
105	0x3e748a87	0.23880969
106	0x3f0500ba	0.51954234
107	0x3d8c105f	0.0683906
108	0x3ac8c7b1	0.0015318302
109	0x3eed6361	0.46364883
110	0x3eabc3c1	0.33547786
111	0xbeed3da9	-0.46336105
112	0xbe8e839c	-0.27834785
113	0xbde60033	-0.11230507
114	0xbe33be07	-0.17552958
115	0xbe109b3e	-0.1412172
116	0x3efe440c	0.4966129
117	0x3e4d27db	0.20034735
118	0xbbdcfac0	-0.006743759
119	0xbe7b7a5a	-0.24558392
120	0xbd1d64e8	-0.03842631
121	0xbed5111e	-0.41614622
122	0xbee2ec63	-0.44320974
123	0x3ed3ecda	0.4139164
124	0xbebd1f62	-0.36938006
125	0xbed7d222	-0.42152506
126	0xbea0e142	-0.31421858
127	0xbeafe2cc	-0.3435272
128	0x3c1221c0	0.008919179
129	0xbe331d8c	-0.1749174
130	0xbeb32c48	-0.3499472
131	0xbed218ce	-0.4103455
132	0x3d98c294	0.07458988
133	0x3ea9b95f	0.3314924
134	0x3ef6b9cd	0.4818863
135	0x3d9d0de5	0.07668666
136	0x3ec9a069	0.39380196
137	0xbe8686be	-0.26274675
138	0x3db84866	0.08998184
139	0xbec54102	-0.3852616
140	0x3ea0595f	0.31318185
141	0xbe5abb85	-0.21360596
142	0x3e76b2c1	0.24091627
143	0x3e162148	0.14661133
144	0xbe059bec	-0.1304776
145	0xbec3d580	-0.38248825
146	0xbe6b62c8	-0.22986901
147	0x3ed4c4a2	0.4155627
148	0x3df224e4	0.118234426
149	0x3eea2cda	0.45737344
150	0xbee30bd6	-0.44344968
151	0xbcdc3c04	-0.026884086
152	0x3eb48864	0.35260308
153	0x3d1f8e82	0.038954265
154	0xbe9d16eb	-0.30681548
155	0x3d691968	0.056908995
156	0xbeb0f8ca	-0.3456481
157	0x3d2e4637	0.04254743
158	0xbde5fb37	-0.11229556
159	0x3e689cc2	0.22716048
160	0xbee82508	-0.45340753
161	0x3e8a4af2	0.27010304
162	0xbe4f5ac8	-0.20249474
163	0xbef2506c	-0.47326982
164	0x3c381205	0.011234765
165	0x3ed96510	0.42459917
166	0xbee18804	-0.44049084
167	0xbeb853af	-0.36001346
168	0xbdb0ff88	-0.08642489
169	0xbecd6235	-0.4011399
170	0x3dbcd70d	0.09220705
171	0x3ef7cbb7	0.4839761
172	0xbee8a41c	-0.45437706
173	0x3e47d858	0.19516122
174	0xbedd38cc	-0.43207395
175	0x3e97446e	0.29544395
176	0xbede1648	-0.43376374
177	0xbee4f6b2	-0.44719464
178	0x3efd9e88	0.49535012
179	0xbe83ba2c	-0.25727975
180	0xbedea8b9	-0.434881
181	0x3eb6af7b	0.35680756
182	0x3e8b56b5	0.2721459
183	0x3e5fd7c3	0.2185965
184	0x3ecdf7c4	0.40228093
185	0x3e3e4c24	0.18583733
186	0x3e9c1bd3	0.30489978
187	0x3e67e687	0.22646533
188	0x3e9b49fe	0.3032989
189	0xbec11fee	-0.37719673
190	0xbd66a630	-0.056310833
191	0xbea046f2	-0.31304127
192	0x3e071db2	0.13194922
193	0xbdad9c91	-0.08477128
194	0x3f013181	0.5046616
195	0xbd94c596	-0.07264249
196	0x3d3047ad	0.043037105
197	0x3eb80ad0	0.3594575
198	0xbe714799	-0.23562469
199	0x3dc6c7ec	0.09706101
200	0xbea7bb00	-0.32759857
201	0xbec8a758	-0.39190173
202	0x3e61ca28	0.22049773
203	0xbd55f920	-0.052239537
204	0xbd9ddecb	-0.0770851
205	0x3e37d8e2	0.17953828
206	0x3c47c973	0.012194025
207	0x3ec078d8	0.37592196
208	0xbeb26b06	-0.34847277
209	0xbea4dfb8	-0.32201934
210	0xbeb246ca	-0.34819633
211	0x3e130156	0.14355978
212	0x3ee172c1	0.44032863
213	0x3e8fb98a	0.28071243
214	0x3f08e4d5	0.5347417
215	0x3eca042e	0.39456314
216	0xbe60d358	-0.21955621
217	0xbeda5882	-0.4264565
218	0x3ecf3968	0.40473485
219	0xbe942316	-0.28933018
220	0xbee54941	-0.4478245
221	0xbee7a8e8	-0.45246053
222	0xbe00c3c9	-0.12574686
223	0xbbd957ab	-0.0066327653
224	0x3e7bcf40	0.24590778
225	0x3e98c5f2	0.2983852
226	0xbe6219bf	-0.22080134
227	0x3e222d77	0.15837656
228	0x3e822646	0.25419825
229	0x3e198db4	0.14995462
230	0xbe170011	-0.14746119
231	0xbcaab8a1	-0.020839991
232	0x3d71b420	0.05900967
233	0xbe72dc1c	-0.23716778
234	0xbecf0326	-0.4043209
235	0x3dc6ef30	0.0971359
236	0xbeee37fa	-0.46527082
237	0xbef94b18	-0.48690104
238	0xbe1f0c14	-0.15531951
239	0x3e037bf8	0.12840259
240	0xbdd57b90	-0.10423958
241	0x3da0f3a0	0.07858968
242	0x3db27258	0.087132156
243	0x3e2c64f4	0.16835386
244	0xbec72262	-0.3889342
245	0xbd1f5c20	-0.038906217
246	0xbebf9024	-0.37414658
247	0xbe149028	-0.14508116
248	0x3e0280d4	0.12744457
249	0xbe9e8150	-0.30958033
250	0xbe5ef69c	-0.21773762
251	0x3ec8afdc	0.3919667
252	0x3d158c90	0.036511004
253	0xbe5b7e40	-0.2143488
254	0xbe3eb080	-0.18622017
255	0x3e5b55c4	0.21419436

shared.0.bias f4 [128]
0	0x3eca1699	0.39470366
1	0x3e837746	0.25676936
2	0x3d96ac01	0.07357026
3	0x3dab7746	0.08372359
4	0x3e596990	0.21231675
5	0xbea2f620	-0.31828403
6	0xbe240734	-0.16018373
7	0x3e97b605	0.29631057
8	0x3ea69e68	0.3254273
9	0x3d0a3110	0.033738196
10	0x3eacbf0f	0.33739516
11	0xbe9909b8	-0.29890227
12	0x3effab85	0.49935547
13	0x3e998447	0.29983732
14	0x3eedc8a2	0.46442133
15	0x3e133f90	0.14379716
16	0xbefdec1a	-0.49594194
17	0xbe606648	-0.21914017
18	0xbe9f74c4	-0.31143773
19	0xbe36ac66	-0.17839202
20	0xbe7e9a5e	-0.24863574
21	0x3e83116e	0.25599235
22	0xbceac72b	-0.028659424
23	0x3e9be2b7	0.30446407
24	0x3ef113a9	0.47085312
25	0xbe0a81e7	-0.13526116
26	0xbdb048b7	-0.08607619
27	0x3ee87152	0.45398957
28	0x3f09a20e	0.537629
29	0xbed88a38	-0.42292953
30	0x3e986bc7	0.29769728
31	0xbd80f2a0	-0.06296277
32	0x3e04c4c8	0.12965691
33	0x3ed7bc95	0.42136064
34	0xbe8c30bd	-0.27380934
35	0x3ead4d33	0.3384796
36	0xbee3d782	-0.44500357
37	0xbd956149	-0.07293946
38	0x3ed06207	0.4069979
39	0x3e2cf113	0.16888838
40	0xbecb21c0	-0.39674187
41	0xbebfb431	-0.37442163
42	0x3ee7e9c3	0.45295534
43	0xbe7a6838	-0.24453819
44	0xbd7568e0	-0.05991447
45	0xbe865620	-0.26237583
46	0xbd4bfa3c	-0.04979919
47	0xbeacb9f6	-0.33735627
48	0x3cd20158	0.025635406
49	0xbedcdd17	-0.43137428
50	0xbeb08490	-0.34476137
51	0xbe80b4d2	-0.25137955
52	0x3e70233e	0.23450944
53	0xbe8d43cc	-0.27590787
54	0xbd6e65c0	-0.058202505
55	0x3ed8d8eb	0.42352995
56	0xbd45919d	-0.04823457
57	0xbd4d30dc	-0.050095424
58	0xbee5de56	-0.4489619
59	0xbe3b5974	-0.18295842
60	0xbec122a6	-0.37721747
61	0x3d8cb598	0.06870574
62	0xbeb12aa8	-0.34602857
63	0xbdbedf50	-0.09319937
64	0x3ec579e7	0.38569567
65	0x3ee73cf5	0.45163694
66	0xbe9e96d2	-0.30974442
67	0xbeb777f3	-0.35833701
68	0xbdc1d19b	-0.09463807
69	0xbdf33840	-0.11875963
70	0xbed893b7	-0.42300197
71	0x3ec51b20	0.38497257
72	0x3e330d55	0.17485555
73	0xbe9826fe	-0.2971725
74	0x3eca46ad	0.39507046
75	0x3ee34374	0.443874
76	0xbdf76b50	-0.12081015
77	0x3e92f359	0.28701285
78	0xbeb40ffa	-0.3516844
79	0x3f0175dc	0.50570464
80	0x3e889ac9	0.26680592
81	0x3edca191	0.43092015
82	0x3e83872c	0.25689065
83	0xbea89592	-0.32926613
84	0x3ea26075	0.31714216
85	0xbedfd1f4	-0.4371487
86	0x3c70e76d	0.014703614
87	0xbea5c4fc	-0.3237685
88	0xbed03cb4	-0.40671313
89	0x3f04d978	0.5189433
90	0x3e35f2c8	0.17768395
91	0xbeaa7030	-0.33288717
92	0xbec4218a	-0.38306838
93	0x3e1c3f4c	0.15258521
94	0x3e172cd1	0.1476319
95	0xbc9e95a0	-0.019358456
96	0xbe3ea12f	-0.18616174
97	0x3ea3b739	0.31975725
98	0x3ed3d925	0.41376606
99	0x3d676b32	0.056498714
100	0x3edceee8	0.4315102
101	0xbeed5730	-0.4635558
102	0x3e1dac81	0.15397836
103	0x3eef6e6f	0.46763942
104	0xbc0d917c	-0.008640643
105	0xbedf83ca	-0.43655235
106	0x3ec40ca0	0.38290882
107	0x3e45cf3d	0.19317336
108	0x3e713a23	0.23557334
109	0xbed0cbce	-0.4078049
110	0x3d9ed14c	0.07754764
111	0xbedffcf4	-0.43747675
112	0xbee6ac26	-0.45053214
113	0x3e0f9cb7	0.14024626
114	0xbe8d8c42	-0.2764607
115	0x3eb53cf0	0.35398054
116	0xbe490786	-0.19631776
117	0xbdcf6505	-0.1012669
118	0x3e99afaf	0.30016848
119	0x3ed5655f	0.41678903
120	0xbe97ee36	-0.29673928
121	0x3e00ec43	0.12590127
122	0x3e84910a	0.25891906
123	0xbedfdd9c	-0.43723762
124	0xbdb73b68	-0.08946878
125	0xbe5d13e3	-0.21589617
126	0x3e96f005	0.29479995
127	0xbe897982	-0.26850516

shared.2.weight f4 [64, 128]
0	0xbcfee20a	-0.031113643
1	0xba233cf7	-0.0006227041
2	0xbd0ec2c4	-0.03485371
3	0x3d238cec	0.039929315
4	0x3d973d58	0.07384747
5	0x3d42239e	0.04739725
6	0x3d70b2aa	0.058764137
7	0xbd56e500	-0.052464485
8	0x3d8fbcff	0.0701847
9	0x3c3b644a	0.011437485
10	0x3ceefbf0	0.029172868
11	0x3d112b7d	0.035441864
12	0x3d8c1f82	0.06841947
13	0x3db825ed	0.08991609
14	0x3d22b809	0.03972629
15	0x3d7de30d	0.06198411
16	0xbc5db5f5	-0.0135321515
17	0x3d9a0c74	0.075219065
18	0xbcb6f596	-0.022333901
19	0x3d49ddb7	0.04928371
20	0xbc3356e6	-0.010946011
21	0x3d1ef047	0.038803365
22	0x3d526d61	0.051373843
23	0x3db0d5c8	0.086345255
24	0x3d8b6bd1	0.06807674
25	0x3dd398ef	0.10331904
26	0x3cad8d53	0.021185553
27	0x3b5c49bb	0.0033613283
28	0x3d946f3d	0.072477795
29	0x3bd51fc9	0.006504033
30	0x3ca57531	0.020197483
31	0xbd5326b0	-0.051550567
32	0x3c7c2673	0.015390026
33	0xbd0bdf8e	-0.034148745
34	0x3d99376c	0.07481274
35	0xbc6f4059	-0.014602744
36	0x3b9e2484	0.0048261303
37	0x3c521859	0.012823188
38	0x3d947dd4	0.07250562
39	0xbd54268d	-0.051794577
40	0x3d92ecd2	0.07174076
41	0xbd1ea599	-0.038732145
42	0xbbc63407	-0.0060486826
43	0x3c9877e0	0.018611848
44	0xbd09d0cb	-0.033646386
45	0xbd5c5e4d	-0.05380087
46	0xbd4354df	-0.04768836
47	0x3ce9d38d	0.028543258
48	0x3df66465	0.120308675
49	0x3d661aa7	0.05617776
50	0xbc235cba	-0.009970838
51	0xbda79bc0	-0.08184004
52	0x3d9b5728	0.07584983
53	0x3d393ff8	0.04522702
54	0xbd6ca436	-0.05777379
55	0x39820d89	0.00024805617
56	0x3da102ca	0.0786186
57	0x3cdcaef6	0.026938897
58	0xbcba2a9f	-0.022725401
59	0xbda183dc	-0.07886478
60	0x3d5c4068	0.05377236
61	0x3da48d80	0.080348015
62	0x3ce22b6d	0.027608598
63	0x3cf6fbda	0.030149389
64	0x3dc016de	0.093793616
65	0xbd42398b	-0.04741816
66	0xbdb0f945	-0.086412944
67	0x3bb01224	0.0053732563
68	0x3da9545b	0.08268043
69	0xbd466d26	-0.048443936
70	0xbda4db97	-0.08049696
71	0xbb8a6a3c	-0.00422409
72	0xbd1a1f47	-0.037627485
73	0xbdb43db0	-0.088008285
74	0x3d8f44b4	0.06995526
75	0x3de00e50	0.1094023
76	0xbd76392b	-0.060113113
77	0xbd6ebfe0	-0.058288455
78	0x3d94cf3c	0.07266089
79	0x3dca2b1e	0.09871505
80	0xbc8dfd3b	-0.017332664
81	0x3d77e235	0.060518462
82	0x3dc03d32	0.09386672
83	0xbd17929b	-0.03700505
84	0x3d4a8a5c	0.049448356
85	0x3d800261	0.06250454
86	0x38de3514	0.000105956715
87	0x3d94e545	0.07270292
88	0x3d37ed01	0.04490376
89	0xbd07996e	-0.033105306
90	0xbd2039ce	-0.039117627
91	0xbb4a19f1	-0.0030838216
92	0x3da36273	0.07977762
93	0xbd9f13ff	-0.07767486
94	0x3dc8f244	0.098118335
95	0x3c8857e5	0.016643474
96	0xbd5dcb0c	-0.05414872
97	0x3d3e86da	0.046515323
98	0x3d0993a3	0.033588063
99	0x3b456ed5	0.0030125875
100	0x3d695d6e	0.056973867
101	0xbd975ed5	-0.07391135
102	0x3d96dcb0	0.073663116
103	0xbd73de84	-0.05953838
104	0xbd627526	-0.055287503
105	0x3d854522	0.06507327
106	0x3dd1e89e	0.10249446
107	0xbd32c2c2	-0.043642767
108	0x3d97226b	0.073796116
109	0x3d86b241	0.06576968
110	0xbd07ae03	-0.033124935
111	0xbc8be487	-0.017076744
112	0xbcee976b	-0.029124936
113	0x3dae63ce	0.0851513
114	0xbd3cacd4	-0.04606326
115	0x3d282ab4	0.04105635
116	0x3d344848	0.044014245
117	0x3d845bd5	0.06462828
118	0xbd52f1d9	-0.051500175
119	0x3d97652d	0.073923446
120	0xbaccb7e0	-0.0015618764
121	0x3dcc5ac3	0.09978249
122	0x3dd4bc51	0.10387481
123	0x3d16115d	0.036637653
124	0xbd98d24a	-0.074619845
125	0x3db260e2	0.08709885
126	0x3dc04ad8	0.09389275
127	0x3b5a67a4	0.0033325935
128	0xbc925e7f	-0.017867325
129	0xbb9d5263	-0.004801081
130	0x3d82c84d	0.063858606
131	0x3d1b9bf8	0.03799054
132	0x3d10c690	0.035345614
133	0x3dae374c	0.08506641
134	0xbd9fb08d	-0.07797346
135	0x3d3f3208	0.046678573
136	0x3d862804	0.06550601
137	0x3c76e34d	0.015068841
138	0xbd85e546	-0.06537871
139	0x3cfcf8f8	0.030880436
140	0xbc1e9670	-0.009679422
141	0x3ad33d0d	0.0016116217
142	0xba82347e	-0.0009933857
143	0xbd730a1a	-0.059335805
144	0xbd03ea9d	-0.032206167
145	0xb9bc9aaa	-0.00035973388
146	0x3d46b731	0.04851455
147	0x3ba55b9c	0.005046321
148	0x3cd1af10	0.025596172
149	0x3c6658e2	0.014059277
150	0xbd420fa7	-0.04737821
151	0x3d9747d1	0.07386745
152	0x3d83bb32	0.06432189
153	0xbd4882bc	-0.048952803
154	0xbd9e58a6	-0.07731752
155	0x3d27219c	0.040803537
156	0xbd544825	-0.051826615
157	0x3d75aaa0	0.059977174
158	0x3ceedddb	0.029158523
159	0xbd3901a8	-0.045167595
160	0x3c46bb45	0.0121296095
161	0xbdb0b8ae	-0.08628975
162	0x3da8eed7	0.0824868
163	0xbda70578	-0.0815534
164	0xbd357fdd	-0.044311393
165	0x3d1c72ff	0.038195606
166	0xbd849851	-0.064743645
167	0xbdb51ab8	-0.08842987
168	0xbbd12938	-0.0063830875
169	0x3d672bdf	0.056438323
170	0xbc417ebe	-0.011810003
171	0xbbbfaaef	-0.0058492343
172	0xbd1690e9	-0.03675929
173	0xbd1c42a0	-0.038149476
174	0x3d8913d8	0.06693238
175	0xbd7b50d7	-0.06135639
176	0x3c88e1ce	0.016709235
177	0xbdb74c7b	-0.08950134
178	0x3d1671c6	0.036729597
179	0x3d15d758	0.03658232
180	0xbc8dc591	-0.017306121
181	0xbd49684a	-0.049171723
182	0x3b111742	0.0022139107
183	0x3ccc6190	0.024948865
184	0xbc81de53	-0.015853083
185	0x3d1b0f17	0.037856188
186	0x3d9e4239	0.07727475
187	0x3d921315	0.07132546
188	0x3d590a2d	0.05298822
189	0xbc89b376	-0.016809206
190	0xbdb085fa	-0.08619304
191	0x3ccf408b	0.025299331
192	0xbb95e9b8	-0.0045749806
193	0xbd742e40	-0.05961442
194	0xbd8d9124	-0.06912449
195	0xbdb3de67	-0.08782654
196	0xbd1176f6	-0.03551384
197	0x3c061f4b	0.008186172
198	0x3d18de10	0.03732115
199	0xbd9b709d	-0.07589839
200	0x3d290924	0.041268483
201	0xbd082164	-0.03323497
202	0x3d51eb48	0.051249772
203	0xbc00d86c	-0.007864099
204	0xbd392ab1	-0.04520673
205	0x3d057614	0.03258331
206	0xbcd4b661	-0.025965871
207	0x3d517340	0.0511353
208	0x3d145acf	0.036219414
209	0x3d780686	0.060553096
210	0xbc82cef5	-0.015967825
211	0xbcd0c792	-0.025485788
212	0xbc9b69cb	-0.018971344
213	0xbdb23144	-0.08700803
214	0x3d1fb61a	0.038992025
215	0xbd486b1b	-0.04893027
216	0xbba9e1e5	-0.0051843994
217	0xbb97dced	-0.0046344907
218	0x3ce87ccf	0.028379826
219	0x3d074055	0.033020336
220	0x3c6ef7bd	0.014585433
221	0xbdb268ed	-0.08711419
222	0x3cfd535d	0.03092354
223	0x3ca6e786	0.02037407
224	0xbd96496d	-0.073382236
225	0x3d4d4ba7	0.050120976
226	0xbdb53a46	-0.088490054
227	0xbc01cffe	-0.007923124
228	0xbd9c60f7	-0.07635682
229	0xbc85563b	-0.01627647
230	0x3ae7a136	0.0017671946
231	0xbbaa863f	-0.0052039917
232	0xbc98d98b	-0.01865842
233	0xbd898a30	-0.0671581
234	0xbdae82fe	-0.085210785
235	0xb96569e6	-0.00021878592
236	0x3c291f10	0.010322347
237	0xbd8cbe97	-0.0687229
238	0x3d40d62b	0.047079246
239	0xbda8e534	-0.08246842
240	0xbcf417bb	-0.029796472
241	0xbb220052	-0.002471943
242	0xbd5c6538	-0.053807467
243	0x3c475515	0.012166281
244	0x3cf7703d	0.030204887
245	0xbdc17689	-0.09446437
246	0x3d276758	0.04087004
247	0x3d955c51	0.072929986
248	0x3d033739	0.032035086
249	0x3d10533a	0.03523562
250	0xbda14fc3	-0.078765415
251	0xbcea936b	-0.028634747
252	0xbc864e01	-0.016394617
253	0xbd8a6ffa	-0.06759639
254	0xb9b41252	-0.00034345925
255	0x3d653454	0.055958107

shared.2.bias f4 [64]
0	0x3d250bbc	0.040294394
1	0xbca8925e	-0.020577606
2	0x3d4bda23	0.04976858
3	0x3d7be9e9	0.06150237
4	0xbc20e723	-0.009820732
5	0x3d85287c	0.065018624
6	0x3dc09a14	0.09404388
7	0x3d94dc2a	0.072685555
8	0xbd4c4e6d	-0.04987948
9	0x3cc22d06	0.02370311
10	0x3c651713	0.013982552
11	0xbd9c66bd	-0.07636783
12	0x3df4d62a	0.11954911
13	0x3d8fc9c2	0.07020904
14	0x3d158b2d	0.03650968
15	0x3da9ca7a	0.082905725
16	0xbd4c4927	-0.04987445
17	0x3c21126e	0.009831054
18	0xbc58a52b	-0.013222973
19	0x3cdd34ce	0.027002718
20	0xbd6a222e	-0.057161503
21	0x3c9d8875	0.019230107
22	0x3d9b3a87	0.075795226
23	0x3bdb3ed7	0.0066908407
24	0xbd7fc336	-0.062442027
25	0x3d051ada	0.03249631
26	0x3da0ffb2	0.0786127
27	0x3d8dd78e	0.069258794
28	0x3d5cf903	0.053948414
29	0xbbff2ea4	-0.0077875424
30	0x3c82f183	0.015984302
31	0xbdb1841e	-0.086677775
32	0x3d582240	0.05276704
33	0xbd7acd58	-0.061230987
34	0x3d0e5edb	0.03475843
35	0x3d19c13b	0.037537795
36	0x3bde1a1a	0.006778014
37	0xbcddc556	-0.027071636
38	0x3ca9be87	0.020720733
39	0xbd054474	-0.032535985
40	0xbd2b6dbb	-0.041852694
41	0xbdb1b7cc	-0.086776346
42	0x3c59660a	0.013268957
43	0xbd0c3ca7	-0.03423753
44	0xbd24dbca	-0.04024867
45	0x3da92f2b	0.0826095
46	0x3da416c2	0.08012153
47	0x3df4923a	0.11941953
48	0x3d5965ac	0.053075477
49	0x3d0ef4b4	0.034901336
50	0xbdace45b	-0.08441993
51	0x3dc82aa6	0.097737595
52	0x3dce61b4	0.10077229
53	0xbd5abcc2	-0.05340267
54	0x3df11c19	0.11772937
55	0xbd8aaf2f	-0.06771695
56	0xbc14daaf	-0.009085341
57	0x3d7a5b50	0.06112224
58	0xbc93ba25	-0.018033097
59	0x3de282ec	0.110601276
60	0x3bd43979	0.006476578
61	0x3cd1b93e	0.025601026
62	0x3da5f207	0.08102804
63	0xbac2958d	-0.0014845595

actor_head.weight f4 [1, 64]
0	0x3db3b804	0.087753326
1	0xbdf5db71	-0.12004746
2	0xbdd71fcc	-0.10504112
3	0x3c35191a	0.011053348
4	0x3d33647c	0.043797
5	0xbc0923b0	-0.008370325
6	0x3cc6f7d7	0.024288101
7	0x3d02e11c	0.031952962
8	0x3df3dc74	0.119072825
9	0x3dd87f87	0.10571199
10	0xbdbfa674	-0.0935792
11	0x3d48940c	0.048969314
12	0x3d4ef618	0.050527662
13	0xbc466db0	-0.0121111125
14	0xbb8d5aea	-0.0043138163
15	0xbdf0af35	-0.11752168
16	0xbd6c89a4	-0.05774845
17	0xbce52804	-0.027973182
18	0xbd9f20ea	-0.0776995
19	0xbdb7196b	-0.08940395
20	0xbda63f8e	-0.08117591
21	0x3d620804	0.055183426
22	0x3dda9037	0.10672038
23	0xbcd59807	-0.026073469
24	0x3deb4c83	0.11489203
25	0xbda1eabe	-0.07906102
26	0xbc258d25	-0.010104452
27	0xbc8d1491	-0.01722172
28	0x3cb2ca25	0.021824906
29	0x3db8ac8f	0.09017288
30	0xbddd404d	-0.1080328
31	0xbc58ecd0	-0.013240054
32	0x3d814c7b	0.063134156
33	0x3c6657fa	0.014059061
34	0x3cc77429	0.024347382
35	0x3c537caa	0.01290814
36	0xbdddf522	-0.10837771
37	0xbd941aaa	-0.07231648
38	0x3daf6ac4	0.08565286
39	0x3d8415e8	0.06449491
40	0xba504be9	-0.0007945882
41	0x3d9a4940	0.075335026
42	0xbd50d7a6	-0.05098691
43	0x3d9e1bb8	0.07720131
44	0x3d11247c	0.035435185
45	0xbc5990be	-0.013279138
46	0xbe002ee3	-0.12517886
47	0xbd89dc06	-0.06731419
48	0x3dc5cccb	0.09658202
49	0x3aa4c4f9	0.001257091
50	0x3c660a40	0.01404053
51	0x3dc69ba1	0.096976526
52	0x3dcc2ff1	0.099700816
53	0xbd8442d2	-0.064580575
54	0x3d757ced	0.05993359
55	0x3db26568	0.08710748
56	0x3cb21d8b	0.021742603
57	0xbd132538	-0.035924166
58	0x3ce5a8d1	0.0280346
59	0xbde7bf0f	-0.113157384
60	0x3d009895	0.031395514
61	0x3d7319d9	0.059350822
62	0xbd9d7226	-0.07687788
63	0xbcebfbc8	-0.028806582

critic_head.0.weight f4 [128, 64]
0	0xbd60e15c	-0.05490242
1	0x3dcd4ea8	0.10024768
2	0xbd45df48	-0.04830864
3	0xbdc548c0	-0.096330166
4	0xbcbfbdc8	-0.023405924
5	0xbd1453fc	-0.036212906
6	0xbdfd13a2	-0.1235726
7	0xbda9a2fe	-0.082830414
8	0xbd89df0a	-0.067319945
9	0xbd6a1ea0	-0.057158113
10	0xbdd02d38	-0.10164875
11	0x3de3459c	0.11097261
12	0xbde45990	-0.11149895
13	0x3dfb00fc	0.12256047
14	0xbd298c78	-0.041393727
15	0x3db42b2a	0.087972954
16	0xbde1aaea	-0.110189274
17	0x3da61170	0.08108795
18	0xbdafdd7c	-0.08587167
19	0x3d97973c	0.074018925
20	0x3d88486c	0.066544384
21	0xbd446540	-0.047948122
22	0xbddbf40c	-0.107399076
23	0xbdb74ca4	-0.08950165
24	0xbdd52c16	-0.10408799
25	0xbd8612e6	-0.06546573
26	0xbdcf03ec	-0.1010817
27	0xbdd9af38	-0.106291234
28	0x3d9c606e	0.0763558
29	0xbdd6c5e2	-0.10486962
30	0x3d97931a	0.07401104
31	0xbd0f9de8	-0.0350627
32	0xbd854ab4	-0.06508389
33	0xbd140c3c	-0.03614448
34	0xbd1d9658	-0.038473457
35	0x3da8a89e	0.08235286
36	0x3ccfdac0	0.025372863
37	0xbdefe61e	-0.11713813
38	0xbdad23e6	-0.08454113
39	0x3dbcd59e	0.09220432
40	0xbd6251c0	-0.055253744
41	0xbdff4f1c	-0.12466261
42	0xbb9e5460	-0.0048318356
43	0xbc8837b8	-0.016628131
44	0x3dcfc87c	0.10145661
45	0xbdb62082	-0.08892919
46	0x3a34be00	0.0006894767
47	0xbdb5de4c	-0.088802904
48	0x3d9b7ff8	0.075927675
49	0x3d896e48	0.067104876
50	0xbc731800	-0.014837265
51	0xbdb8bb04	-0.090200454
52	0x3dd07c9e	0.10180019
53	0x3ccbdb70	0.02488491
54	0xbd6ac7a8	-0.057319313
55	0xbd84fb8e	-0.06493293
56	0x3c378ac0	0.011202514
57	0xbdf75a82	-0.1207781
58	0xbdaf9f6a	-0.08575328
59	0x3b43dec0	0.0029887408
60	0x3d4774a8	0.048695236
61	0xbda9197a	-0.082568124
62	0xbd79ac64	-0.06095542
63	0x3dcac884	0.099015266
64	0xbd4f82b4	-0.050661758
65	0x3dc747c3	0.09730484
66	0xbd887be2	-0.06664254
67	0xbdb85f6c	-0.09002575
68	0xbd4d99bc	-0.05019544
69	0xbbf9bfc0	-0.0076217353
70	0x3da86a34	0.08223382
71	0x3cd69b50	0.026197106
72	0xbd66d632	-0.056356616
73	0xbcc23c77	-0.023710473
74	0x3dfa7c6d	0.122307636
75	0xbb8f69a0	-0.004376605
76	0x3e0b6ecd	0.13616486
77	0x3c2fb3c0	0.010724008
78	0x3d870e8d	0.06594572
79	0x3cebbcb2	0.0287765
80	0xbdb9f864	-0.0908058
81	0xbde20b09	-0.11037261
82	0x3c5028c1	0.012705029
83	0x3df8f32d	0.12155757
84	0x3d19b088	0.03752187
85	0x3d53de7e	0.051725857
86	0x3defc5aa	0.11707623
87	0xbc063343	-0.008190933
88	0x3da11461	0.07865215
89	0x3e138b82	0.14408687
90	0xbd8e38de	-0.0694444
91	0x3d902530	0.07038343
92	0xbc6eb0bc	-0.014568504
93	0x3db12bfb	0.08650967
94	0xbd2a9b57	-0.04165205
95	0xbc8f1e40	-0.017470479
96	0x3e02175b	0.12704222
97	0x3cbcbb60	0.023038566
98	0xbcefa02a	-0.029251177
99	0x3deebe88	0.11657435
100	0x3d6e564c	0.058187768
101	0x3dd28c68	0.102806866
102	0xbd5c665e	-0.053808562
103	0xbdfda3f0	-0.12384784
104	0x3e1be4db	0.1522402
105	0x3db2d6c4	0.087323695
106	0x3e0480bd	0.12939735
107	0xbd279874	-0.040916875
108	0x3ceb7050	0.028740078
109	0xbd9899fc	-0.07451245
110	0x3b89cea5	0.004205542
111	0x3d636828	0.055519253
112	0x3e04c481	0.12965585
113	0xbd1bbc48	-0.038021356
114	0xbd841b78	-0.06450552
115	0xbdb087aa	-0.08619626
116	0x3e101f06	0.14074335
117	0x3dd0ed8e	0.1020156
118	0xbd8f5c9a	-0.07000084
119	0x3d230e48	0.03980854
120	0xbdb266f4	-0.08711043
121	0x3dd3c9d8	0.10341233
122	0x3d5f214e	0.05447512
123	0xbc858388	-0.01629807
124	0xbdb07072	-0.08615197
125	0xbc395c17	-0.01131346
126	0x3dc073bb	0.09397074
127	0xbda14610	-0.078746915
128	0xbdc11094	-0.0942699
129	0x3d627838	0.05529043
130	0x3dc8db2e	0.0980743
131	0xbd5a2978	-0.053262204
132	0xbdc82ad0	-0.09773791
133	0x3df02c80	0.11727238
134	0x3dd2a4d8	0.10285348
135	0xbc878010	-0.016540557
136	0xbdb410ae	-0.08792244
137	0x3d0e3a4c	0.034723565
138	0xbd392720	-0.045203328
139	0xbd691218	-0.05690202
140	0xbc895028	-0.016761854
141	0xbcc42c48	-0.023946896
142	0x3dd109c6	0.10206942
143	0x3de87bf2	0.11351766
144	0x3de9ebb0	0.11421907
145	0x3d8767d6	0.06611602
146	0x3b6a1f00	0.0035724044
147	0xbd32a0c0	-0.043610334
148	0x3de51c4a	0.11187036
149	0xbd495a50	-0.049158394
150	0xbdf8f4d2	-0.12156071
151	0x3d08dd38	0.033414096
152	0x3dc11a28	0.09428817
153	0x3d7eb6e8	0.06218615
154	0xbdf1b6ca	-0.11802442
155	0x3d17c004	0.037048355
156	0xbdd9f65a	-0.10642691
157	0x3dbed350	0.093176484
158	0x3db89df4	0.09014502
159	0x3d3cf1e0	0.046129107
160	0xbd7c8930	-0.06165427
161	0xbdeaffd6	-0.11474578
162	0x3d0d45bc	0.034490332
163	0xbd1ba7f4	-0.03800197
164	0xbd9e7dac	-0.07738814
165	0xbd86563a	-0.06559415
166	0x3d8539b0	0.06505144
167	0x3dec147e	0.11527346
168	0x3dc6d88e	0.09709273
169	0xbda2bb24	-0.079458505
170	0x3dfe6428	0.12421447
171	0x3d30eb10	0.043192923
172	0xbd8e3540	-0.069437504
173	0xbda6587e	-0.08122347
174	0xbde3f278	-0.111302316
175	0x3da207a6	0.07911615
176	0xbd888960	-0.06666827
177	0xbd3d2d64	-0.046185866
178	0xbc6bc480	-0.014390111
179	0x3d4ea278	0.05044791
180	0x3d9a1696	0.07523839
181	0xbcfaae20	-0.030600607
182	0x3d4478ec	0.047966883
183	0x3dc60c4e	0.09670316
184	0x3c58a0d0	0.013221934
185	0x3d5061f0	0.05087465
186	0x3c349a30	0.011023089
187	0x3d2da248	0.04239109
188	0xbddd9e78	-0.10821241
189	0x3bba4d80	0.0056855083
190	0xbda8a530	-0.08234632
191	0x3d04208c	0.0322576
192	0xbcbbd0b1	-0.02292666
193	0x3de49ebd	0.111630894
194	0x3dd75756	0.10514705
195	0x3cac4e6e	0.021033492
196	0xbb9b3f00	-0.004737735
197	0xbd687980	-0.056756496
198	0xbdc1607b	-0.0944223
199	0xbdc6147e	-0.09671877
200	0x3d91e164	0.07123068
201	0xbdd3a38d	-0.10333929
202	0xbdfa278a	-0.12214573
203	0xbdcce90e	-0.10005389
204	0xbdf5cec4	-0.12002328
205	0x3d68e920	0.05686295
206	0x3d4ec2a0	0.050478578
207	0x3d011ee3	0.031523596
208	0xbdc9da36	-0.098560736
209	0xbd189d1e	-0.037259214
210	0xbc633c4f	-0.013869359
211	0x3dd9b671	0.10630501
212	0x3d11eea8	0.03562799
213	0xbce86338	-0.028367624
214	0xbb422c86	-0.0029628589
215	0x3d92e17d	0.07171915
216	0xbdc31a6a	-0.095265225
217	0x3d9d455d	0.076792456
218	0x3c9f7234	0.019463636
219	0xbda60b9b	-0.08107682
220	0x3d399fce	0.045318417
221	0x3dbec37e	0.09314631
222	0xbdd01c13	-0.10161605
223	0x3dbb3cfc	0.09142491
224	0xbdf06a3d	-0.11739013
225	0xbd7ef15f	-0.06224191
226	0xbdae1cfa	-0.085016206
227	0xbc12e838	-0.008966498
228	0x3d970726	0.0737441
229	0xbdac444c	-0.08411464
230	0x3db2934c	0.08719501
231	0xbd8fa3a6	-0.07013635
232	0x3ddc62f5	0.10761062
233	0x3cca5178	0.02469705
234	0xbdfd61ca	-0.123721674
235	0x3dd66e4c	0.10470256
236	0x3c609580	0.013707519
237	0x3db35234	0.087559134
238	0xbda1f315	-0.07907692
239	0x3de421ec	0.111392826
240	0x3dbf2ab9	0.093343206
241	0x3db8ab54	0.09017053
242	0x3d8d1c30	0.06890142
243	0xbd8c0c5e	-0.06838296
244	0xbc72e9ab	-0.014826219
245	0x3df154ae	0.117837295
246	0xbc01b236	-0.007916024
247	0x3d4db5c4	0.050222173
248	0x3db0ec7b	0.08638855
249	0xbd7dd943	-0.061974775
250	0x3cf28eb0	0.029609054
251	0xbcb0270e	-0.021502998
252	0xbd54522a	-0.05183617
253	0xbc0d9643	-0.008641782
254	0xbe028030	-0.12744212
255	0x3dd0bfc4	0.101928264

critic_head.0.bias f4 [128]
0	0xbd47cb20	-0.0487777
1	0xbce4ffb2	-0.027953956
2	0xbd5549b0	-0.052072227
3	0x3d009728	0.031394154
4	0xbc72bc35	-0.01481538
5	0x3cf9d844	0.030498631
6	0xbd7fa2f7	-0.062411275
7	0x3dcee987	0.101031356
8	0x3d654612	0.055975027
9	0x3df4253f	0.11921167
10	0xbdf64155	-0.1202418
11	0xbde59840	-0.1121068
12	0x3df49737	0.119429044
13	0x3d04da9b	0.03243504
14	0xbcc35120	-0.023842394
15	0xbdd0e638	-0.10200161
16	0x3db2698d	0.087115385
17	0xbc8a3c85	-0.016874561
18	0x3deb5c21	0.114921816
19	0x3ad463f0	0.00162041
20	0xbd8b55f7	-0.06803506
21	0x373cd0c8	1.1254284e-05
22	0xbbbbe280	-0.005733788
23	0xbce1a608	-0.02754499
24	0x3d99bda7	0.075068764
25	0x3c9cc19e	0.019135293
26	0x3d5d97b1	0.054099742
27	0xbd589c09	-0.05288318
28	0x3dd1f2f8	0.10251421
29	0x3c416a74	0.011805166
30	0x3e140338	0.14454353
31	0xbdb528ea	-0.08845694
32	0xbd821a44	-0.06352666
33	0xbdd4a4f2	-0.10383023
34	0x3d99fd88	0.075190604
35	0xbde50a0a	-0.111835554
36	0xbd9dc310	-0.07703221
37	0x3de89636	0.113567755
38	0xbdbe5154	-0.09292856
39	0xbde9aeee	-0.11410318
40	0x3cf9fdf0	0.030516595
41	0x3d1c2d0a	0.03812889
42	0xbd25e936	-0.04050561
43	0xbc435ca8	-0.011923946
44	0xbda371ce	-0.07980691
45	0xbd7aa323	-0.061190736
46	0x3ca7ccbb	0.020483365
47	0xbdad5f2d	-0.08465419
48	0xbd289984	-0.04116203
49	0x3d684ec6	0.05671575
50	0xbdde1b8a	-0.108450964
51	0xbda0b88e	-0.07847701
52	0x3db3f70d	0.087873556
53	0x3e003a6e	0.12522289
54	0xbdf0b056	-0.117523834
55	0xbdfe15c0	-0.12406492
56	0xbd05a15c	-0.032624587
57	0xbc9c5f35	-0.019088367
58	0x3c2f5437	0.010701231
59	0xbda8286c	-0.08210835
60	0x3db4f20d	0.0883523
61	0xbdef3b52	-0.11681236
62	0xbdfa9602	-0.12235643
63	0x3d8dff93	0.069335125
64	0x3dc9e877	0.09858792
65	0x3c8cf9fb	0.017209044
66	0x3df74f75	0.12075702
67	0x3df9a517	0.121896915
68	0xbde544ba	-0.11194749
69	0xbde56c78	-0.112023294
70	0xbdbfc566	-0.09363823
71	0xbcfdc32c	-0.030976854
72	0x3ccd99c3	0.025097733
73	0x3dc13933	0.09434738
74	0xbd7e42ec	-0.06207554
75	0x3c6d3e2c	0.014480155
76	0xbdb64d8c	-0.0890151
77	0xbcb113f0	-0.021615952
78	0xbdc0401e	-0.093872294
79	0x3d9a2830	0.075271964
80	0x3e082777	0.13296305
81	0xbbe95485	-0.007120671
82	0xbd1c4e70	-0.03816074
83	0x3de847ab	0.113417946
84	0x3df854fa	0.12125583
85	0xbdb26232	-0.087101355
86	0xbda70e30	-0.08157003
87	0xbd4f462c	-0.05060403
88	0xbda6763c	-0.0812802
89	0x3df6a2d7	0.12042778
90	0xb9f2b021	-0.00046289063
91	0x3d2dd586	0.04243996
92	0x3ca41cf8	0.020033345
93	0xbd0767be	-0.03305792
94	0x3d29a839	0.041420195
95	0xbdfe4588	-0.12415606
96	0x3bbba177	0.005726035
97	0x3db548d9	0.08851785
98	0x3d702d40	0.058636904
99	0x3c28ef95	0.010311027
100	0xbd6e6ae4	-0.058207408
101	0x3ce5d090	0.028053552
102	0x3da2c41b	0.079475604
103	0xbd9f0d3a	-0.07766195
104	0xbd69bf11	-0.05706698
105	0xb998f000	-0.00029170513
106	0x3de23538	0.11045307
107	0x3dabf1d3	0.08395734
108	0xbce4a189	-0.027909057
109	0x3d8ed5b4	0.069743544
110	0xbdae1c3b	-0.08501478
111	0x3c857411	0.016290696
112	0xbd0b7bf6	-0.034053765
113	0xbd83408e	-0.06408797
114	0xbdda58b0	-0.10661447
115	0x3c9f71d8	0.019463465
116	0x3d64bac7	0.055842187
117	0x3d100916	0.035164915
118	0xbdcde03c	-0.10052535
119	0x3e0581ba	0.13037768
120	0xbdad2714	-0.08454719
121	0xbcf89e3c	-0.03034889
122	0x3d961f38	0.07330173
123	0xbc9ebb7c	-0.019376509
124	0xbdf29292	-0.11844362
125	0x3db88507	0.09009748
126	0x3dddf653	0.10837998
127	0xbd2eebec	-0.04270546

critic_head.2.weight f4 [64, 128]
0	0x397b8524	0.00023986824
1	0xbcc351da	-0.02384274
2	0x3c128913	0.008943814
3	0xbd323aec	-0.043513224
4	0xbc87538e	-0.016519334
5	0x3c8ed72c	0.017436586
6	0x3d81ced1	0.06338275
7	0x3d9a25f2	0.07526769
8	0x3d8f4001	0.0699463
9	0x3c70c05f	0.014694302
10	0xbd9049a6	-0.07045297
11	0xbd533dea	-0.051572718
12	0x3cb1b48a	0.021692533
13	0x3dc6fbaa	0.0971597
14	0x3b966953	0.0045901923
15	0xbd9aeac3	-0.075643085
16	0x3dc2b745	0.09507612
17	0x3d7c4f3c	0.061599
18	0xbd02e506	-0.031956695
19	0x3b16f5d0	0.00230347
20	0x3d59b0d2	0.053147145
21	0xbd756262	-0.05990828
22	0xbd073185	-0.03300621
23	0xbd4c79cf	-0.049920853
24	0x3ae1661c	0.0017196569
25	0x3db48b1f	0.08815598
26	0xbd558114	-0.05212505
27	0xbd8986e1	-0.06715179
28	0x3dcfb463	0.10141828
29	0x3d0ea279	0.034822915
30	0x3dc846d8	0.097791374
31	0xbc9e7e96	-0.01934747
32	0x3d1a1263	0.03761519
33	0x3c8df374	0.017328002
34	0x3df03003	0.117279075
35	0xbd6cf109	-0.057847057
36	0xbd5ee38d	-0.054416228
37	0xbc7ee920	-0.015558511
38	0xbc089614	-0.008336563
39	0xbd5662ad	-0.0523402
40	0x3c5dd53f	0.013539611
41	0x3dbb9130	0.09158552
42	0x3dfc0a6e	0.12306677
43	0x3c96453f	0.018343566
44	0x3db99d2a	0.0906318
45	0x3b8ad117	0.0042363512
46	0xbc077346	-0.008267229
47	0xbc77604d	-0.0150986435
48	0x3d846809	0.06465156
49	0x3d4b666f	0.049658235
50	0xbd6202ef	-0.05517858
51	0x3c01693c	0.007898625
52	0x3d815599	0.063151546
53	0x3d9c74bf	0.07639455
54	0x3cba3e06	0.022734653
55	0xbd83dc28	-0.06438476
56	0x3baed1c2	0.0053350637
57	0xbd46c18a	-0.048524417
58	0x3df16e46	0.11788611
59	0x3b582836	0.0032982952
60	0xbb89ef90	-0.0042094663
61	0x3d9163ea	0.07099135
62	0x3caf5143	0.021401053
63	0x3d8d4cc0	0.068994045
64	0xbd44d5b4	-0.048055366
65	0x3d21fc8d	0.03954749
66	0xbccda0d5	-0.025101105
67	0xbd5536e4	-0.0520543
68	0xbcbd713a	-0.02312528
69	0x3da5d7ff	0.080978386
70	0x3c969ef1	0.018386336
71	0x3d199cd7	0.03750309
72	0x3df5724d	0.11984692
73	0xbd887ff7	-0.06665032
74	0x3b8c16f4	0.004275197
75	0xbce1e380	-0.0275743
76	0x3ce3e126	0.02781732
77	0xbd2a75ec	-0.041616365
78	0x3d7135eb	0.05888931
79	0x3df99a53	0.12187638
80	0xbd16f755	-0.036856968
81	0x3c4ca0b7	0.012489489
82	0x3d7a033d	0.061038245
83	0x3d646250	0.05575782
84	0x3db45628	0.088054955
85	0xbc39b44a	-0.011334488
86	0x3d641cb0	0.05569142
87	0xbcb9f843	-0.022701388
88	0x3dae3881	0.08506871
89	0x3dbd01e1	0.09228874
90	0x3dceec25	0.10103635
91	0xbd9f3bfc	-0.07775113
92	0x3d921e1f	0.071346514
93	0x3c6ad8ef	0.014333948
94	0x3d8358d3	0.06413426
95	0x3d8a5a4f	0.06755506
96	0xbd20dd4c	-0.039273545
97	0x3dd3b013	0.10336318
98	0x3d836e25	0.06417493
99	0x3dab7f63	0.083739065
100	0xbc8aa10e	-0.0169225
101	0xbd8b37cb	-0.06797751
102	0xbd9b4f5c	-0.07583496
103	0xbd5e095d	-0.05420815
104	0x3ce26103	0.02763415
105	0xbdab35b0	-0.083598495
106	0x3da287b9	0.07936043
107	0x3d7f2457	0.062290516
108	0x3d3d4e02	0.046216972
109	0xbd9066c0	-0.07050848
110	0x3dac783b	0.0842137
111	0xbd5c7a39	-0.053827498
112	0x3c7d1e23	0.01544908
113	0xbd072148	-0.032990724
114	0xbcd0bc3c	-0.025480382
115	0x3d87cee2	0.06631257
116	0xbce05091	-0.027382167
117	0x3df305d6	0.118663475
118	0x3d7e4832	0.06208057
119	0x3d8fe67f	0.070263855
120	0xbd38f2e3	-0.04515351
121	0xbd3aba14	-0.045587614
122	0x3dd6dc2d	0.10491214
123	0xbd9fb6cb	-0.07798537
124	0xbd9ff8b6	-0.0781111
125	0xbd025758	-0.03182158
126	0x3bad0417	0.0052800286
127	0xbd0fef9e	-0.035140626
128	0x3d791982	0.06081534
129	0x3d1c55c1	0.03816772
130	0xbc24d21f	-0.010059862
131	0xbd1159ad	-0.035485912
132	0xbd3b35dc	-0.04570566
133	0xbd90f3af	-0.07077729
134	0x3c031417	0.008000395
135	0xbcbd65db	-0.023119858
136	0x3beef9ff	0.0072929855
137	0x3ddf5332	0.1090454
138	0xbdad5118	-0.08462733
139	0x3c594959	0.013262116
140	0xbc9233b5	-0.017846921
141	0x3dc2a6eb	0.09504493
142	0xbc936a9f	-0.017995177
143	0x3c98e733	0.018664932
144	0xbb7b579d	-0.0038351782
145	0x3c74f158	0.014950119
146	0xbcae668a	-0.021289129
147	0x3d50d704	0.050986305
148	0xb941df2f	-0.00018489057
149	0x3d84993e	0.06474541
150	0xbd42484a	-0.04743222
151	0xbdafc56a	-0.085825756
152	0x3dd7902b	0.10525545
153	0x3d83ec65	0.06441573
154	0xbd18c52c	-0.037297413
155	0x3ba64a03	0.005074741
156	0x3d966448	0.07343346
157	0x3d6ebbd7	0.058284607
158	0x3d6a1684	0.05715038
159	0x3dcb6c87	0.09932809
160	0xbc8cba0f	-0.017178563
161	0x3d837f88	0.06420809
162	0xbd2a60b0	-0.041596115
163	0xbd41a413	-0.047275614
164	0xbc71dc29	-0.014761963
165	0x3d1f5751	0.03890163
166	0xbd0997b5	-0.033591945
167	0xbd29cad6	-0.041453205
168	0xbbd3ed35	-0.0064674863
169	0xbd6ff1d7	-0.058580246
170	0x3d36909f	0.044571515
171	0x3da75b14	0.08171669
172	0xbc6f8132	-0.014618205
173	0xbc3148ac	-0.010820549
174	0xbd0120fc	-0.031525597
175	0x3d687315	0.056750376
176	0xbda91f82	-0.08257963
177	0x3d3337fe	0.04375457
178	0x3d8a40e0	0.06750655
179	0x3d8f7bd1	0.07006038
180	0xbd30cae9	-0.04316226
181	0x3da2a356	0.0794131
182	0x3daa5c56	0.08318393
183	0xbd6a49c5	-0.05719926
184	0x3d3de8e8	0.046364695
185	0xbd8d77b5	-0.06907598
186	0x3de0798b	0.109606825
187	0x3d6c6946	0.057717584
188	0xbd74385a	-0.059624054
189	0x3d60fa63	0.054926287
190	0x3c328f2f	0.010898395
191	0xbc47430f	-0.012161984
192	0xbda2276b	-0.07917675
193	0x3ca8ac11	0.02058986
194	0x3dda8839	0.10670514
195	0xbbc21c90	-0.005923815
196	0xbd671ec6	-0.056425832
197	0xbdb49d11	-0.088190205
198	0xbd8205d2	-0.063487664
199	0x3daeb621	0.08530832
200	0x3df4efeb	0.11959823
201	0xbcfa445f	-0.03055018
202	0x3d6b6acc	0.057474896
203	0x3dbfc269	0.09363253
204	0x3cf4d526	0.029886793
205	0xbc1e2f85	-0.009654884
206	0xbd4be845	-0.049782056
207	0xbd5b388b	-0.05352072
208	0x3d7bcc2c	0.06147401
209	0xbd528f8f	-0.05140644
210	0xbd38a307	-0.04507735
211	0xbd2d8975	-0.042367417
212	0x3d0a82c3	0.03381611
213	0x3cc1c352	0.023652706
214	0x3cf786ff	0.030215738
215	0x3d8ddacb	0.06926497
216	0x3d7d8713	0.061896395
217	0x3d1f1d1a	0.038846113
218	0xbd11169d	-0.035421956
219	0xbc903232	-0.01760206
220	0xbd80f31d	-0.0629637
221	0xbd8f7446	-0.07004599
222	0x3dbf7334	0.09348145
223	0xbd7199ca	-0.058984555
224	0xbcd954f7	-0.026529772
225	0xbd6a862c	-0.057256863
226	0xbca158ff	-0.019695757
227	0xbda838d4	-0.08213964
228	0x3d91d521	0.07120729
229	0xbc91f7b8	-0.017818317
230	0x3d10d0f7	0.035355534
231	0x3c91a3bb	0.017778268
232	0x3da3d023	0.07998683
233	0xbc23697f	-0.009973883
234	0x3c94d086	0.018165838
235	0x3d28427f	0.04107904
236	0x3da51c3c	0.08062026
237	0xbbe1624e	-0.006878174
238	0x3d2a534f	0.041583356
239	0x3dc45934	0.09587327
240	0x3de3324d	0.110935785
241	0x3dafadea	0.08578093
242	0xbd249b52	-0.040187187
243	0xbd405a4a	-0.046961106
244	0x3d7f8f94	0.062392786
245	0x3d86b383	0.06577208
246	0xbda2870f	-0.07935917
247	0xbcb677eb	-0.022273978
248	0x3d7bb942	0.061455972
249	0x3def585d	0.11686776
250	0xbcd2c883	-0.025730377
251	0xbbdc16b4	-0.0067165736
252	0xbcbe4f5e	-0.023231205
253	0xbce560d7	-0.028000278
254	0x3d87456c	0.06605038
255	0xbd64a916	-0.055825315

critic_head.2.bias f4 [64]
0	0x3cf5a482	0.02998567
1	0x3dc143d9	0.09436769
2	0x3c181aa4	0.009283695
3	0xbd698249	-0.057009015
4	0xbd29276e	-0.04129737
5	0xbd906d66	-0.07052116
6	0x3c3e33b1	0.011609004
7	0xbd54ce17	-0.051954355
8	0x3d957f31	0.072996505
9	0x3d413211	0.047166888
10	0xbbfcda65	-0.0077164643
11	0x3c286978	0.010279052
12	0xbd37d3f8	-0.044879884
13	0x3dd4a871	0.1038369
14	0xbd11244d	-0.03543501
15	0xbd87b096	-0.06625478
16	0x3d2a4295	0.041567404
17	0xbc595363	-0.01326451
18	0xbd558f53	-0.052138638
19	0xbc896018	-0.016769454
20	0x3c468a2d	0.012117905
21	0x3cd290c0	0.025703788
22	0x3dbac6d5	0.091199555
23	0xbcaf5376	-0.021402102
24	0xbc814bff	-0.015783308
25	0x3d41b360	0.047290206
26	0x3d6d5a60	0.057947516
27	0xbd5a335e	-0.053271644
28	0x3d3728ad	0.044716526
29	0xbd75dab5	-0.06002303
30	0x3d030bba	0.031993605
31	0x3c261e3e	0.010139046
32	0xbcd02d8e	-0.025412347
33	0xbd8b75ec	-0.06809601
34	0xbd67f7f6	-0.05663296
35	0x3db934ec	0.09043297
36	0x3d3f5b50	0.04671794
37	0x3d8d1490	0.068886876
38	0xbdb10d6b	-0.086451374
39	0xbc2418e3	-0.010015699
40	0xbd0d8e45	-0.034559507
41	0x3cdf90e7	0.027290775
42	0xbce1309a	-0.027488995
43	0x3d909d38	0.07061237
44	0xbcb7dcc6	-0.02244414
45	0xbd117e6b	-0.035520952
46	0xbdb2bb9d	-0.08727191
47	0xbd8bb357	-0.06821316
48	0x3d9ffc6b	0.07811817
49	0xbda4604a	-0.08026178
50	0xbdb26e4a	-0.08712442
51	0xbc975c92	-0.018476758
52	0x3d82bad5	0.06383292
53	0x3d90eabe	0.070760235
54	0x3d60dab9	0.05489609
55	0x3ddd3fc9	0.10803182
56	0xbd8c893a	-0.068621114
57	0x3b7375f3	0.003714916
58	0xbbb29168	-0.0054494627
59	0x3dcea2ff	0.10089683
60	0x3c7e4144	0.01551849
61	0xbbeea048	-0.0072822906
62	0x3c0585db	0.008149589
63	0x3d98c4ab	0.074593864

critic_head.4.weight f4 [1, 64]
0	0xbd3773b9	-0.044788096
1	0xbe1d37e4	-0.15353352
2	0x3da30f22	0.07961871
3	0xbdb828b2	-0.08992137
4	0x3d7c6838	0.06162283
5	0x3dc2d4c9	0.09513242
6	0xbe0952d4	-0.13410503
7	0x3d1382bc	0.03601335
8	0xbde8e7b3	-0.11372318
9	0x3dc31c52	0.09526886
10	0x3dc1f024	0.09469631
11	0x3d992f8d	0.07479773
12	0xbdfc602a	-0.12323029
13	0xbd48411d	-0.048890222
14	0x3d8b9df4	0.068172365
15	0xbce193b8	-0.027536258
16	0xbdd4336a	-0.10361369
17	0x3c82c377	0.015962346
18	0xbda462e7	-0.080266766
19	0x3dd3ce9b	0.10342141
20	0xbdd0da20	-0.10197854
21	0x3d8ad493	0.067788266
22	0xbdbb46f6	-0.09144394
23	0xbd3b59be	-0.04573988
24	0xbd6dde66	-0.058073424
25	0xbd5d77f0	-0.05406946
26	0x3d92f77e	0.07176112
27	0x3c6a9890	0.0143186
28	0x3d6fa227	0.05850425
29	0x3de93ad9	0.113881774
30	0xbdbb00d0	-0.09131014
31	0x3daac096	0.08337514
32	0x3dbda056	0.09259097
33	0x3cb40298	0.021973893
34	0x3df401ed	0.1191443
35	0xbdbd6475	-0.09247676
36	0xbdf5ed1c	-0.12008116
37	0x3d392b69	0.045207415
38	0xbca0fd90	-0.019652158
39	0x3d7f23ae	0.062289886
40	0xbdd81acb	-0.10551985
41	0x3de58a31	0.112079985
42	0x3cdc75e0	0.026911676
43	0x3cf99efb	0.030471316
44	0x3dd060e6	0.10174732
45	0xbba78f20	-0.0051134974
46	0xbdf96fb8	-0.12179512
47	0x3da2fd9a	0.07958527
48	0xbe1d692c	-0.15372151
49	0xba42565c	-0.0007413381
50	0xbcca2ca0	-0.024679482
51	0xbd6bd641	-0.057577375
52	0x3d90358b	0.070414625
53	0xbdca5148	-0.098787844
54	0x3dadcd2e	0.084864005
55	0xbdb09f16	-0.08624093
56	0x3d2c8b30	0.042124927
57	0xbd5f6896	-0.0545431
58	0x3bb57fc9	0.005538915
59	0xbcc7e4d1	-0.0244011
60	0x3dd418b2	0.10356273
61	0x3dc5c0f8	0.096559465
62	0xbdb3d696	-0.087811634
63	0x3c5f8d43	0.013644519
